…
iscale=True, parallel=False, l1int=None, l2int=None, dl2int=None, JFrobint=None, JdiagFrobint=None, JoffdiagFrobint=None, time_penalty=0, max_grad_norm=10000000000.0, begin_epoch=1, resume=None, save='experiments/cnf/mnist_test', val_freq=1, log_freq=10)
ODENVP(
  (transforms): ModuleList(
    (0): StackedCNFLayers(
      (chain): ModuleList(
        (0): LogitTransform()
        (1): CNF(
          (odefunc): RegularizedODEfunc(
            (odefunc): ODEfunc(
              (diffeq): ODEnet(
                (layers): ModuleList(
                  (0): ConcatConv2d(
                    (_layer): Conv2d(2, 64, kernel_size=(3, 3), stride=(1, 1), padding=(1, 1))
                  )
                  (1): ConcatConv2d(
                    (_layer): Conv2d(65, 64, kernel_size=(3, 3), stride=(1, 1), padding=(1, 1))
                  )
                  (2): ConcatConv2d(
                    (_layer): Conv2d(65, 64, kernel_size=(3, 3), stride=(1, 1), padding=(1, 1))
                  )
                  (3): ConcatConv2d(
                    (_layer): Conv2d(65, 1, kernel_size=(3, 3), stride=(1, 1), padding=(1, 1))
                  )
                )
                (activation_fns): ModuleList(
                  (0): Softplus(beta=1, threshold=20)
                  (1): Softplus(beta=1, threshold=20)
                  (2): Softplus(beta=1, threshold=20)
                )
              )
            )
          )
        )
        (2): CNF(
          (odefunc): RegularizedODEfunc(
            (odefunc): ODEfunc(
              (diffeq): ODEnet(
                (layers): ModuleList(
                  (0): ConcatConv2d(
                    (_layer): Conv2d(2, 64, kernel_size=(3, 3), stride=(1, 1), padding=(1, 1))
                  )
                  (1): ConcatConv2d(
                    (_layer): Conv2d(65, 64, kernel_size=(3, 3), stride=(1, 1), padding=(1, 1))
                  )
                  (2): ConcatConv2d(
                    (_layer): Conv2d(65, 64, kernel_size=(3, 3), stride=(1, 1), padding=(1, 1))
                  )
                  (3): ConcatConv2d(
                    (_layer): Conv2d(65, 1, kernel_size=(3, 3), stride=(1, 1), padding=(1, 1))
                  )
                )
                (activation_fns): ModuleList(
                  (0): Softplus(beta=1, threshold=20)
                  (1): Softplus(beta=1, threshold=20)
                  (2): Softplus(beta=1, threshold=20)
                )
              )
            )
          )
        )
        (3): SqueezeLayer()
        (4): CNF(
          (odefunc): RegularizedODEfunc(
            (odefunc): ODEfunc(
              (diffeq): ODEnet(
                (layers): ModuleList(
                  (0): ConcatConv2d(
                    (_layer): Conv2d(5, 64, kernel_size=(3, 3), stride=(1, 1), padding=(1, 1))
                  )
                  (1): ConcatConv2d(
                    (_layer): Conv2d(65, 64, kernel_size=(3, 3), stride=(1, 1), padding=(1, 1))
                  )
                  (2): ConcatConv2d(
                    (_layer): Conv2d(65, 64, kernel_size=(3, 3), stride=(1, 1), padding=(1, 1))
                  )
                  (3): ConcatConv2d(
                    (_layer): Conv2d(65, 4, kernel_size=(3, 3), stride=(1, 1), padding=(1, 1))
                  )
                )
                (activation_fns): ModuleList(
                  (0): Softplus(beta=1, threshold=20)
                  (1): Softplus(beta=1, threshold=20)
                  (2): Softplus(beta=1, threshold=20)
                )
              )
            )
          )
        )
        (5): CNF(
          (odefunc): RegularizedODEfunc(
            (odefunc): ODEfunc(
              (diffeq): ODEnet(
                (layers): ModuleList(
                  (0): ConcatConv2d(
                    (_layer): Conv2d(5, 64, kernel_size=(3, 3), stride=(1, 1), padding=(1, 1))
                  )
                  (1): ConcatConv2d(
                    (_layer): Conv2d(65, 64, kernel_size=(3, 3), stride=(1, 1), padding=(1, 1))
                  )
                  (2): ConcatConv2d(
                    (_layer): Conv2d(65, 64, kernel_size=(3, 3), stride=(1, 1), padding=(1, 1))
                  )
                  (3): ConcatConv2d(
                    (_layer): Conv2d(65, 4, kernel_size=(3, 3), stride=(1, 1), padding=(1, 1))
                  )
                )
                (activation_fns): ModuleList(
                  (0): Softplus(beta=1, threshold=20)
                  (1): Softplus(beta=1, threshold=20)
                  (2): Softplus(beta=1, threshold=20)
                )
              )
            )
          )
        )
      )
    )
    (1): StackedCNFLayers(
      (chain): ModuleList(
        (0): CNF(
          (odefunc): RegularizedODEfunc(
            (odefunc): ODEfunc(
              (diffeq): ODEnet(
                (layers): ModuleList(
                  (0): ConcatConv2d(
                    (_layer): Conv2d(3, 64, kernel_size=(3, 3), stride=(1, 1), padding=(1, 1))
                  )
                  (1): ConcatConv2d(
                    (_layer): Conv2d(65, 64, kernel_size=(3, 3), stride=(1, 1), padding=(1, 1))
                  )
                  (2): ConcatConv2d(
                    (_layer): Conv2d(65, 64, kernel_size=(3, 3), stride=(1, 1), padding=(1, 1))
                  )
                  (3): ConcatConv2d(
                    (_layer): Conv2d(65, 2, kernel_size=(3, 3), stride=(1, 1), padding=(1, 1))
                  )
                )
                (activation_fns): ModuleList(
                  (0): Softplus(beta=1, threshold=20)
                  (1): Softplus(beta=1, threshold=20)
                  (2): Softplus(beta=1, threshold=20)
                )
              )
            )
          )
        )
        (1): CNF(
          (odefunc): RegularizedODEfunc(
            (odefunc): ODEfunc(
              (diffeq): ODEnet(
                (layers): ModuleList(
                  (0): ConcatConv2d(
                    (_layer): Conv2d(3, 64, kernel_size=(3, 3), stride=(1, 1), padding=(1, 1))
                  )
                  (1): ConcatConv2d(
                    (_layer): Conv2d(65, 64, kernel_size=(3, 3), stride=(1, 1), padding=(1, 1))
                  )
                  (2): ConcatConv2d(
                    (_layer): Conv2d(65, 64, kernel_size=(3, 3), stride=(1, 1), padding=(1, 1))
                  )
                  (3): ConcatConv2d(
                    (_layer): Conv2d(65, 2, kernel_size=(3, 3), stride=(1, 1), padding=(1, 1))
                  )
                )
                (activation_fns): ModuleList(
                  (0): Softplus(beta=1, threshold=20)
                  (1): Softplus(beta=1, threshold=20)
                  (2): Softplus(beta=1, threshold=20)
                )
              )
            )
          )
        )
        (2): SqueezeLayer()
        (3): CNF(
          (odefunc): RegularizedODEfunc(
            (odefunc): ODEfunc(
              (diffeq): ODEnet(
                (layers): ModuleList(
                  (0): ConcatConv2d(
                    (_layer): Conv2d(9, 64, kernel_size=(3, 3), stride=(1, 1), padding=(1, 1))
                  )
                  (1): ConcatConv2d(
                    (_layer): Conv2d(65, 64, kernel_size=(3, 3), stride=(1, 1), padding=(1, 1))
                  )
                  (2): ConcatConv2d(
                    (_layer): Conv2d(65, 64, kernel_size=(3, 3), stride=(1, 1), padding=(1, 1))
                  )
                  (3): ConcatConv2d(
                    (_layer): Conv2d(65, 8, kernel_size=(3, 3), stride=(1, 1), padding=(1, 1))
                  )
                )
                (activation_fns): ModuleList(
                  (0): Softplus(beta=1, threshold=20)
                  (1): Softplus(beta=1, threshold=20)
                  (2): Softplus(beta=1, threshold=20)
                )
              )
            )
          )
        )
        (4): CNF(
          (odefunc): RegularizedODEfunc(
            (odefunc): ODEfunc(
              (diffeq): ODEnet(
                (layers): ModuleList(
                  (0): ConcatConv2d(
                    (_layer): Conv2d(9, 64, kernel_size=(3, 3), stride=(1, 1), padding=(1, 1))
                  )
                  (1): ConcatConv2d(
                    (_layer): Conv2d(65, 64, kernel_size=(3, 3), stride=(1, 1), padding=(1, 1))
                  )
                  (2): ConcatConv2d(
                    (_layer): Conv2d(65, 64, kernel_size=(3, 3), stride=(1, 1), padding=(1, 1))
                  )
                  (3): ConcatConv2d(
                    (_layer): Conv2d(65, 8, kernel_size=(3, 3), stride=(1, 1), padding=(1, 1))
                  )
                )
                (activation_fns): ModuleList(
                  (0): Softplus(beta=1, threshold=20)
                  (1): Softplus(beta=1, threshold=20)
                  (2): Softplus(beta=1, threshold=20)
                )
              )
            )
          )
        )
      )
    )
    (2): StackedCNFLayers(
      (chain): ModuleList(
        (0): CNF(
          (odefunc): RegularizedODEfunc(
            (odefunc): ODEfunc(
              (diffeq): ODEnet(
                (layers): ModuleList(
                  (0): ConcatConv2d(
                    (_layer): Conv2d(5, 64, kernel_size=(3, 3), stride=(1, 1), padding=(1, 1))
                  )
                  (1): ConcatConv2d(
                    (_layer): Conv2d(65, 64, kernel_size=(3, 3), stride=(1, 1), padding=(1, 1))
                  )
                  (2): ConcatConv2d(
                    (_layer): Conv2d(65, 64, kernel_size=(3, 3), stride=(1, 1), padding=(1, 1))
                  )
                  (3): ConcatConv2d(
                    (_layer): Conv2d(65, 4, kernel_size=(3, 3), stride=(1, 1), padding=(1, 1))
                  )
                )
                (activation_fns): ModuleList(
                  (0): Softplus(beta=1, threshold=20)
                  (1): Softplus(beta=1, threshold=20)
                  (2): Softplus(beta=1, threshold=20)
                )
              )
            )
          )
        )
        (1): CNF(
          (odefunc): RegularizedODEfunc(
            (odefunc): ODEfunc(
              (diffeq): ODEnet(
                (layers): ModuleList(
                  (0): ConcatConv2d(
                    (_layer): Conv2d(5, 64, kernel_size=(3, 3), stride=(1, 1), padding=(1, 1))
                  )
                  (1): ConcatConv2d(
                    (_layer): Conv2d(65, 64, kernel_size=(3, 3), stride=(1, 1), padding=(1, 1))
                  )
                  (2): ConcatConv2d(
                    (_layer): Conv2d(65, 64, kernel_size=(3, 3), stride=(1, 1), padding=(1, 1))
                  )
                  (3): ConcatConv2d(
                    (_layer): Conv2d(65, 4, kernel_size=(3, 3), stride=(1, 1), padding=(1, 1))
                  )
                )
                (activation_fns): ModuleList(
                  (0): Softplus(beta=1, threshold=20)
                  (1): Softplus(beta=1, threshold=20)
                  (2): Softplus(beta=1, threshold=20)
                )
              )
            )
          )
        )
      )
    )
  )
)
Number of trainable parameters: 800646
…
