…
Namespace(data='8gaussians', layer_type='concatsquash', dims='4-4-4', num_blocks=1, time_length=0.5, train_T=True, divergence_fn='brute_force', nonlinearity='tanh', solver='dopri5', atol=1e-05, rtol=1e-05, step_size=None, test_solver=None, test_atol=None, test_rtol=None, residual=False, rademacher=False, spectral_norm=False, batch_norm=False, bn_lag=0, niters=10000, batch_size=100, test_batch_size=1000, lr=0.001, weight_decay=1e-05, l1int=None, l2int=None, dl2int=None, JFrobint=None, JdiagFrobint=None, JoffdiagFrobint=None, save='experiments/ffjord/8gaussians4', viz_freq=1000, val_freq=100, log_freq=10, gpu=0)
SequentialFlow(
  (chain): ModuleList(
    (0): CNF(
      (odefunc): RegularizedODEfunc(
        (odefunc): ODEfunc(
          (diffeq): ODEnet(
            (layers): ModuleList(
              (0): ConcatSquashLinear(
                (_layer): Linear(in_features=2, out_features=4, bias=True)
                (_hyper_bias): Linear(in_features=1, out_features=4, bias=False)
                (_hyper_gate): Linear(in_features=1, out_features=4, bias=True)
              )
              (1): ConcatSquashLinear(
                (_layer): Linear(in_features=4, out_features=4, bias=True)
                (_hyper_bias): Linear(in_features=1, out_features=4, bias=False)
                (_hyper_gate): Linear(in_features=1, out_features=4, bias=True)
              )
              (2): ConcatSquashLinear(
                (_layer): Linear(in_features=4, out_features=4, bias=True)
                (_hyper_bias): Linear(in_features=1, out_features=4, bias=False)
                (_hyper_gate): Linear(in_features=1, out_features=4, bias=True)
              )
              (3): ConcatSquashLinear(
                (_layer): Linear(in_features=4, out_features=2, bias=True)
                (_hyper_bias): Linear(in_features=1, out_features=2, bias=False)
                (_hyper_gate): Linear(in_features=1, out_features=2, bias=True)
              )
            )
            (activation_fns): ModuleList(
              (0): Tanh()
              (1): Tanh()
              (2): Tanh()
            )
          )
        )
      )
    )
  )
)
Number of trainable parameters: 105
/work/bjzhang_umass_edu/generative_tmula/ffjord-master/lib/layers/odefunc.py:288: UserWarning: To copy construct from a tensor, it is recommended to use sourceTensor.clone().detach() or sourceTensor.clone().detach().requires_grad_(True), rather than torch.tensor(sourceTensor).
…
