…
tensor(220.2739, grad_fn=<AddBackward0>) 99500
tensor(482.2399, grad_fn=<AddBackward0>) 99600
tensor(265.5030, grad_fn=<AddBackward0>) 99700
tensor(188.6413, grad_fn=<AddBackward0>) 99800
tensor(373.4278, grad_fn=<AddBackward0>) 99900
tensor(340.5783, grad_fn=<AddBackward0>) 100000
/work/bjzhang_umass_edu/generative_tmula/preconditioned_generative_modeling/ffjord-sgm/lib/layers/odefunc.py:288: UserWarning: To copy construct from a tensor, it is recommended to use sourceTensor.clone().detach() or sourceTensor.clone().detach().requires_grad_(True), rather than torch.tensor(sourceTensor).
  t = torch.tensor(t).type_as(y)
Sequential(
  (0): Linear(in_features=3, out_features=32, bias=True)
  (1): GELU(approximate='none')
  (2): Linear(in_features=32, out_features=32, bias=True)
  (3): GELU(approximate='none')
  (4): Linear(in_features=32, out_features=32, bias=True)
  (5): GELU(approximate='none')
  (6): Linear(in_features=32, out_features=32, bias=True)
  (7): GELU(approximate='none')
  (8): Linear(in_features=32, out_features=32, bias=True)
  (9): GELU(approximate='none')
  (10): Linear(in_features=32, out_features=2, bias=True)
)
tensor(390.3905, grad_fn=<AddBackward0>) 0
tensor(189.7913, grad_fn=<AddBackward0>) 100
tensor(823.4210, grad_fn=<AddBackward0>) 200
tensor(432.2881, grad_fn=<AddBackward0>) 300
tensor(350.5823, grad_fn=<AddBackward0>) 400
tensor(304.3491, grad_fn=<AddBackward0>) 500
tensor(385.9174, grad_fn=<AddBackward0>) 600
tensor(169.7753, grad_fn=<AddBackward0>) 700
…
tensor(233.9218, grad_fn=<AddBackward0>) 99500
tensor(420.4350, grad_fn=<AddBackward0>) 99600
tensor(141.6767, grad_fn=<AddBackward0>) 99700
tensor(293.0999, grad_fn=<AddBackward0>) 99800
tensor(418.1208, grad_fn=<AddBackward0>) 99900
tensor(466.5449, grad_fn=<AddBackward0>) 100000
/work/bjzhang_umass_edu/generative_tmula/preconditioned_generative_modeling/ffjord-sgm/lib/layers/odefunc.py:288: UserWarning: To copy construct from a tensor, it is recommended to use sourceTensor.clone().detach() or sourceTensor.clone().detach().requires_grad_(True), rather than torch.tensor(sourceTensor).
  t = torch.tensor(t).type_as(y)
Sequential(
  (0): Linear(in_features=3, out_features=32, bias=True)
  (1): GELU(approximate='none')
  (2): Linear(in_features=32, out_features=32, bias=True)
  (3): GELU(approximate='none')
  (4): Linear(in_features=32, out_features=32, bias=True)
  (5): GELU(approximate='none')
  (6): Linear(in_features=32, out_features=32, bias=True)
  (7): GELU(approximate='none')
  (8): Linear(in_features=32, out_features=32, bias=True)
  (9): GELU(approximate='none')
  (10): Linear(in_features=32, out_features=32, bias=True)
  (11): GELU(approximate='none')
  (12): Linear(in_features=32, out_features=32, bias=True)
  (13): GELU(approximate='none')
  (14): Linear(in_features=32, out_features=2, bias=True)
)
tensor(290.9021, grad_fn=<AddBackward0>) 0
tensor(217.5877, grad_fn=<AddBackward0>) 100
tensor(375.2762, grad_fn=<AddBackward0>) 200
tensor(305.8611, grad_fn=<AddBackward0>) 300
tensor(212.6453, grad_fn=<AddBackward0>) 400
tensor(200.4324, grad_fn=<AddBackward0>) 500
tensor(234.5762, grad_fn=<AddBackward0>) 600
tensor(530.5782, grad_fn=<AddBackward0>) 700
…
tensor(462.2122, grad_fn=<AddBackward0>) 99500
tensor(536.1262, grad_fn=<AddBackward0>) 99600
tensor(534.1786, grad_fn=<AddBackward0>) 99700
tensor(390.3750, grad_fn=<AddBackward0>) 99800
tensor(409.5146, grad_fn=<AddBackward0>) 99900
tensor(164.5981, grad_fn=<AddBackward0>) 100000
/work/bjzhang_umass_edu/generative_tmula/preconditioned_generative_modeling/ffjord-sgm/lib/layers/odefunc.py:288: UserWarning: To copy construct from a tensor, it is recommended to use sourceTensor.clone().detach() or sourceTensor.clone().detach().requires_grad_(True), rather than torch.tensor(sourceTensor).
  t = torch.tensor(t).type_as(y)
Sequential(
  (0): Linear(in_features=33, out_features=32, bias=True)
  (1): GELU(approximate='none')
  (2): Linear(in_features=32, out_features=32, bias=True)
  (3): GELU(approximate='none')
  (4): Linear(in_features=32, out_features=32, bias=True)
  (5): GELU(approximate='none')
  (6): Linear(in_features=32, out_features=32, bias=True)
  (7): GELU(approximate='none')
  (8): Linear(in_features=32, out_features=2, bias=True)
)
tensor(440.2124, grad_fn=<AddBackward0>) 0
tensor(250.9230, grad_fn=<AddBackward0>) 100
tensor(236.3694, grad_fn=<AddBackward0>) 200
tensor(256.7074, grad_fn=<AddBackward0>) 300
tensor(168.3166, grad_fn=<AddBackward0>) 400
tensor(361.6263, grad_fn=<AddBackward0>) 500
tensor(287.2937, grad_fn=<AddBackward0>) 600
tensor(214.5175, grad_fn=<AddBackward0>) 700
…
tensor(193.8595, grad_fn=<AddBackward0>) 99500
tensor(635.9584, grad_fn=<AddBackward0>) 99600
tensor(333.8938, grad_fn=<AddBackward0>) 99700
tensor(290.7218, grad_fn=<AddBackward0>) 99800
tensor(212.8708, grad_fn=<AddBackward0>) 99900
tensor(291.2310, grad_fn=<AddBackward0>) 100000
/work/bjzhang_umass_edu/generative_tmula/preconditioned_generative_modeling/ffjord-sgm/lib/layers/odefunc.py:288: UserWarning: To copy construct from a tensor, it is recommended to use sourceTensor.clone().detach() or sourceTensor.clone().detach().requires_grad_(True), rather than torch.tensor(sourceTensor).
  t = torch.tensor(t).type_as(y)
Sequential(
  (0): Linear(in_features=33, out_features=32, bias=True)
  (1): GELU(approximate='none')
  (2): Linear(in_features=32, out_features=32, bias=True)
  (3): GELU(approximate='none')
  (4): Linear(in_features=32, out_features=32, bias=True)
  (5): GELU(approximate='none')
  (6): Linear(in_features=32, out_features=32, bias=True)
  (7): GELU(approximate='none')
  (8): Linear(in_features=32, out_features=32, bias=True)
  (9): GELU(approximate='none')
  (10): Linear(in_features=32, out_features=32, bias=True)
  (11): GELU(approximate='none')
  (12): Linear(in_features=32, out_features=2, bias=True)
)
tensor(268.8162, grad_fn=<AddBackward0>) 0
tensor(292.4573, grad_fn=<AddBackward0>) 100
tensor(285.7126, grad_fn=<AddBackward0>) 200
tensor(315.8159, grad_fn=<AddBackward0>) 300
tensor(251.3677, grad_fn=<AddBackward0>) 400
tensor(182.2765, grad_fn=<AddBackward0>) 500
tensor(231.2776, grad_fn=<AddBackward0>) 600
tensor(400.0953, grad_fn=<AddBackward0>) 700
…
