…
tensor(299.5039, grad_fn=<AddBackward0>) 99500
tensor(248.9582, grad_fn=<AddBackward0>) 99600
tensor(214.8818, grad_fn=<AddBackward0>) 99700
tensor(306.6054, grad_fn=<AddBackward0>) 99800
tensor(342.8755, grad_fn=<AddBackward0>) 99900
tensor(159.0030, grad_fn=<AddBackward0>) 100000
/work/bjzhang_umass_edu/generative_tmula/preconditioned_generative_modeling/ffjord-sgm/lib/layers/odefunc.py:288: UserWarning: To copy construct from a tensor, it is recommended to use sourceTensor.clone().detach() or sourceTensor.clone().detach().requires_grad_(True), rather than torch.tensor(sourceTensor).
  t = torch.tensor(t).type_as(y)
Sequential(
  (0): Linear(in_features=3, out_features=32, bias=True)
  (1): GELU(approximate='none')
  (2): Linear(in_features=32, out_features=32, bias=True)
  (3): GELU(approximate='none')
  (4): Linear(in_features=32, out_features=32, bias=True)
  (5): GELU(approximate='none')
  (6): Linear(in_features=32, out_features=32, bias=True)
  (7): GELU(approximate='none')
  (8): Linear(in_features=32, out_features=32, bias=True)
  (9): GELU(approximate='none')
  (10): Linear(in_features=32, out_features=2, bias=True)
)
tensor(211.3738, grad_fn=<AddBackward0>) 0
tensor(108.6135, grad_fn=<AddBackward0>) 100
tensor(269.0559, grad_fn=<AddBackward0>) 200
tensor(140.8411, grad_fn=<AddBackward0>) 300
tensor(183.4155, grad_fn=<AddBackward0>) 400
tensor(231.9819, grad_fn=<AddBackward0>) 500
tensor(152.2798, grad_fn=<AddBackward0>) 600
tensor(182.6952, grad_fn=<AddBackward0>) 700
…
tensor(235.8329, grad_fn=<AddBackward0>) 99500
tensor(247.4553, grad_fn=<AddBackward0>) 99600
tensor(127.1490, grad_fn=<AddBackward0>) 99700
tensor(145.4134, grad_fn=<AddBackward0>) 99800
tensor(170.5174, grad_fn=<AddBackward0>) 99900
tensor(232.1688, grad_fn=<AddBackward0>) 100000
/work/bjzhang_umass_edu/generative_tmula/preconditioned_generative_modeling/ffjord-sgm/lib/layers/odefunc.py:288: UserWarning: To copy construct from a tensor, it is recommended to use sourceTensor.clone().detach() or sourceTensor.clone().detach().requires_grad_(True), rather than torch.tensor(sourceTensor).
  t = torch.tensor(t).type_as(y)
Sequential(
  (0): Linear(in_features=3, out_features=32, bias=True)
  (1): GELU(approximate='none')
  (2): Linear(in_features=32, out_features=32, bias=True)
  (3): GELU(approximate='none')
  (4): Linear(in_features=32, out_features=32, bias=True)
  (5): GELU(approximate='none')
  (6): Linear(in_features=32, out_features=32, bias=True)
  (7): GELU(approximate='none')
  (8): Linear(in_features=32, out_features=32, bias=True)
  (9): GELU(approximate='none')
  (10): Linear(in_features=32, out_features=32, bias=True)
  (11): GELU(approximate='none')
  (12): Linear(in_features=32, out_features=32, bias=True)
  (13): GELU(approximate='none')
  (14): Linear(in_features=32, out_features=2, bias=True)
)
tensor(134.3443, grad_fn=<AddBackward0>) 0
tensor(161.2421, grad_fn=<AddBackward0>) 100
tensor(245.2321, grad_fn=<AddBackward0>) 200
tensor(281.7021, grad_fn=<AddBackward0>) 300
tensor(184.2659, grad_fn=<AddBackward0>) 400
tensor(186.1853, grad_fn=<AddBackward0>) 500
tensor(163.5677, grad_fn=<AddBackward0>) 600
tensor(297.2109, grad_fn=<AddBackward0>) 700
…
tensor(208.8211, grad_fn=<AddBackward0>) 99500
tensor(193.3350, grad_fn=<AddBackward0>) 99600
tensor(206.1733, grad_fn=<AddBackward0>) 99700
tensor(320.9088, grad_fn=<AddBackward0>) 99800
tensor(292.5780, grad_fn=<AddBackward0>) 99900
tensor(205.7192, grad_fn=<AddBackward0>) 100000
/work/bjzhang_umass_edu/generative_tmula/preconditioned_generative_modeling/ffjord-sgm/lib/layers/odefunc.py:288: UserWarning: To copy construct from a tensor, it is recommended to use sourceTensor.clone().detach() or sourceTensor.clone().detach().requires_grad_(True), rather than torch.tensor(sourceTensor).
  t = torch.tensor(t).type_as(y)
Sequential(
  (0): Linear(in_features=33, out_features=32, bias=True)
  (1): GELU(approximate='none')
  (2): Linear(in_features=32, out_features=32, bias=True)
  (3): GELU(approximate='none')
  (4): Linear(in_features=32, out_features=32, bias=True)
  (5): GELU(approximate='none')
  (6): Linear(in_features=32, out_features=32, bias=True)
  (7): GELU(approximate='none')
  (8): Linear(in_features=32, out_features=2, bias=True)
)
tensor(146.9594, grad_fn=<AddBackward0>) 0
tensor(145.6330, grad_fn=<AddBackward0>) 100
tensor(326.9978, grad_fn=<AddBackward0>) 200
tensor(358.2259, grad_fn=<AddBackward0>) 300
tensor(209.6294, grad_fn=<AddBackward0>) 400
tensor(147.6743, grad_fn=<AddBackward0>) 500
tensor(187.0964, grad_fn=<AddBackward0>) 600
tensor(386.4684, grad_fn=<AddBackward0>) 700
…
tensor(148.7912, grad_fn=<AddBackward0>) 99500
tensor(237.3630, grad_fn=<AddBackward0>) 99600
tensor(347.7957, grad_fn=<AddBackward0>) 99700
tensor(236.4159, grad_fn=<AddBackward0>) 99800
tensor(158.8669, grad_fn=<AddBackward0>) 99900
tensor(300.7327, grad_fn=<AddBackward0>) 100000
/work/bjzhang_umass_edu/generative_tmula/preconditioned_generative_modeling/ffjord-sgm/lib/layers/odefunc.py:288: UserWarning: To copy construct from a tensor, it is recommended to use sourceTensor.clone().detach() or sourceTensor.clone().detach().requires_grad_(True), rather than torch.tensor(sourceTensor).
  t = torch.tensor(t).type_as(y)
Sequential(
  (0): Linear(in_features=33, out_features=32, bias=True)
  (1): GELU(approximate='none')
  (2): Linear(in_features=32, out_features=32, bias=True)
  (3): GELU(approximate='none')
  (4): Linear(in_features=32, out_features=32, bias=True)
  (5): GELU(approximate='none')
  (6): Linear(in_features=32, out_features=32, bias=True)
  (7): GELU(approximate='none')
  (8): Linear(in_features=32, out_features=32, bias=True)
  (9): GELU(approximate='none')
  (10): Linear(in_features=32, out_features=32, bias=True)
  (11): GELU(approximate='none')
  (12): Linear(in_features=32, out_features=2, bias=True)
)
tensor(305.5051, grad_fn=<AddBackward0>) 0
tensor(202.4333, grad_fn=<AddBackward0>) 100
tensor(147.0440, grad_fn=<AddBackward0>) 200
tensor(167.1535, grad_fn=<AddBackward0>) 300
tensor(548.2003, grad_fn=<AddBackward0>) 400
tensor(152.8046, grad_fn=<AddBackward0>) 500
tensor(208.5947, grad_fn=<AddBackward0>) 600
tensor(285.5045, grad_fn=<AddBackward0>) 700
…
