…
tensor(338.4880, grad_fn=<AddBackward0>) 99500
tensor(425.3379, grad_fn=<AddBackward0>) 99600
tensor(650.3340, grad_fn=<AddBackward0>) 99700
tensor(287.6489, grad_fn=<AddBackward0>) 99800
tensor(601.9417, grad_fn=<AddBackward0>) 99900
tensor(309.7657, grad_fn=<AddBackward0>) 100000
/work/bjzhang_umass_edu/generative_tmula/preconditioned_generative_modeling/ffjord-sgm/lib/layers/odefunc.py:288: UserWarning: To copy construct from a tensor, it is recommended to use sourceTensor.clone().detach() or sourceTensor.clone().detach().requires_grad_(True), rather than torch.tensor(sourceTensor).
  t = torch.tensor(t).type_as(y)
Sequential(
  (0): Linear(in_features=3, out_features=32, bias=True)
  (1): GELU(approximate='none')
  (2): Linear(in_features=32, out_features=32, bias=True)
  (3): GELU(approximate='none')
  (4): Linear(in_features=32, out_features=32, bias=True)
  (5): GELU(approximate='none')
  (6): Linear(in_features=32, out_features=32, bias=True)
  (7): GELU(approximate='none')
  (8): Linear(in_features=32, out_features=32, bias=True)
  (9): GELU(approximate='none')
  (10): Linear(in_features=32, out_features=2, bias=True)
)
tensor(729.4954, grad_fn=<AddBackward0>) 0
tensor(329.1724, grad_fn=<AddBackward0>) 100
tensor(399.2110, grad_fn=<AddBackward0>) 200
tensor(288.7323, grad_fn=<AddBackward0>) 300
tensor(599.5221, grad_fn=<AddBackward0>) 400
tensor(277.5516, grad_fn=<AddBackward0>) 500
tensor(376.2514, grad_fn=<AddBackward0>) 600
tensor(272.1574, grad_fn=<AddBackward0>) 700
…
tensor(547.6857, grad_fn=<AddBackward0>) 99500
tensor(262.4645, grad_fn=<AddBackward0>) 99600
tensor(1381.4397, grad_fn=<AddBackward0>) 99700
tensor(404.3687, grad_fn=<AddBackward0>) 99800
tensor(325.0397, grad_fn=<AddBackward0>) 99900
tensor(324.1600, grad_fn=<AddBackward0>) 100000
/work/bjzhang_umass_edu/generative_tmula/preconditioned_generative_modeling/ffjord-sgm/lib/layers/odefunc.py:288: UserWarning: To copy construct from a tensor, it is recommended to use sourceTensor.clone().detach() or sourceTensor.clone().detach().requires_grad_(True), rather than torch.tensor(sourceTensor).
  t = torch.tensor(t).type_as(y)
Sequential(
  (0): Linear(in_features=3, out_features=32, bias=True)
  (1): GELU(approximate='none')
  (2): Linear(in_features=32, out_features=32, bias=True)
  (3): GELU(approximate='none')
  (4): Linear(in_features=32, out_features=32, bias=True)
  (5): GELU(approximate='none')
  (6): Linear(in_features=32, out_features=32, bias=True)
  (7): GELU(approximate='none')
  (8): Linear(in_features=32, out_features=32, bias=True)
  (9): GELU(approximate='none')
  (10): Linear(in_features=32, out_features=32, bias=True)
  (11): GELU(approximate='none')
  (12): Linear(in_features=32, out_features=32, bias=True)
  (13): GELU(approximate='none')
  (14): Linear(in_features=32, out_features=2, bias=True)
)
tensor(780.4724, grad_fn=<AddBackward0>) 0
tensor(340.9360, grad_fn=<AddBackward0>) 100
tensor(392.1752, grad_fn=<AddBackward0>) 200
tensor(221.8687, grad_fn=<AddBackward0>) 300
tensor(260.8624, grad_fn=<AddBackward0>) 400
tensor(307.3955, grad_fn=<AddBackward0>) 500
tensor(430.2014, grad_fn=<AddBackward0>) 600
tensor(274.7074, grad_fn=<AddBackward0>) 700
…
tensor(556.5783, grad_fn=<AddBackward0>) 99500
tensor(686.6718, grad_fn=<AddBackward0>) 99600
tensor(390.9484, grad_fn=<AddBackward0>) 99700
tensor(342.6817, grad_fn=<AddBackward0>) 99800
tensor(400.8499, grad_fn=<AddBackward0>) 99900
tensor(298.7229, grad_fn=<AddBackward0>) 100000
/work/bjzhang_umass_edu/generative_tmula/preconditioned_generative_modeling/ffjord-sgm/lib/layers/odefunc.py:288: UserWarning: To copy construct from a tensor, it is recommended to use sourceTensor.clone().detach() or sourceTensor.clone().detach().requires_grad_(True), rather than torch.tensor(sourceTensor).
  t = torch.tensor(t).type_as(y)
Sequential(
  (0): Linear(in_features=33, out_features=32, bias=True)
  (1): GELU(approximate='none')
  (2): Linear(in_features=32, out_features=32, bias=True)
  (3): GELU(approximate='none')
  (4): Linear(in_features=32, out_features=32, bias=True)
  (5): GELU(approximate='none')
  (6): Linear(in_features=32, out_features=32, bias=True)
  (7): GELU(approximate='none')
  (8): Linear(in_features=32, out_features=2, bias=True)
)
tensor(502.4135, grad_fn=<AddBackward0>) 0
tensor(673.5121, grad_fn=<AddBackward0>) 100
tensor(301.7377, grad_fn=<AddBackward0>) 200
tensor(219.8228, grad_fn=<AddBackward0>) 300
tensor(689.4587, grad_fn=<AddBackward0>) 400
tensor(255.4457, grad_fn=<AddBackward0>) 500
tensor(306.2569, grad_fn=<AddBackward0>) 600
tensor(297.3840, grad_fn=<AddBackward0>) 700
…
tensor(640.6183, grad_fn=<AddBackward0>) 99500
tensor(856.2705, grad_fn=<AddBackward0>) 99600
tensor(332.5432, grad_fn=<AddBackward0>) 99700
tensor(256.9474, grad_fn=<AddBackward0>) 99800
tensor(421.6638, grad_fn=<AddBackward0>) 99900
tensor(297.3010, grad_fn=<AddBackward0>) 100000
/work/bjzhang_umass_edu/generative_tmula/preconditioned_generative_modeling/ffjord-sgm/lib/layers/odefunc.py:288: UserWarning: To copy construct from a tensor, it is recommended to use sourceTensor.clone().detach() or sourceTensor.clone().detach().requires_grad_(True), rather than torch.tensor(sourceTensor).
  t = torch.tensor(t).type_as(y)
Sequential(
  (0): Linear(in_features=33, out_features=32, bias=True)
  (1): GELU(approximate='none')
  (2): Linear(in_features=32, out_features=32, bias=True)
  (3): GELU(approximate='none')
  (4): Linear(in_features=32, out_features=32, bias=True)
  (5): GELU(approximate='none')
  (6): Linear(in_features=32, out_features=32, bias=True)
  (7): GELU(approximate='none')
  (8): Linear(in_features=32, out_features=32, bias=True)
  (9): GELU(approximate='none')
  (10): Linear(in_features=32, out_features=32, bias=True)
  (11): GELU(approximate='none')
  (12): Linear(in_features=32, out_features=2, bias=True)
)
tensor(269.6930, grad_fn=<AddBackward0>) 0
tensor(377.7406, grad_fn=<AddBackward0>) 100
tensor(366.8495, grad_fn=<AddBackward0>) 200
tensor(395.0644, grad_fn=<AddBackward0>) 300
tensor(555.1327, grad_fn=<AddBackward0>) 400
tensor(410.1827, grad_fn=<AddBackward0>) 500
tensor(417.1613, grad_fn=<AddBackward0>) 600
tensor(910.2214, grad_fn=<AddBackward0>) 700
…
