…
tensor(171.5120, grad_fn=<AddBackward0>) 99500
tensor(125.3685, grad_fn=<AddBackward0>) 99600
tensor(204.2265, grad_fn=<AddBackward0>) 99700
tensor(78.0270, grad_fn=<AddBackward0>) 99800
tensor(227.2893, grad_fn=<AddBackward0>) 99900
tensor(113.0667, grad_fn=<AddBackward0>) 100000
/work/bjzhang_umass_edu/generative_tmula/preconditioned_generative_modeling/ffjord-sgm/lib/layers/odefunc.py:288: UserWarning: To copy construct from a tensor, it is recommended to use sourceTensor.clone().detach() or sourceTensor.clone().detach().requires_grad_(True), rather than torch.tensor(sourceTensor).
  t = torch.tensor(t).type_as(y)
Sequential(
  (0): Linear(in_features=3, out_features=32, bias=True)
  (1): GELU(approximate='none')
  (2): Linear(in_features=32, out_features=32, bias=True)
  (3): GELU(approximate='none')
  (4): Linear(in_features=32, out_features=32, bias=True)
  (5): GELU(approximate='none')
  (6): Linear(in_features=32, out_features=32, bias=True)
  (7): GELU(approximate='none')
  (8): Linear(in_features=32, out_features=32, bias=True)
  (9): GELU(approximate='none')
  (10): Linear(in_features=32, out_features=2, bias=True)
)
tensor(189.9260, grad_fn=<AddBackward0>) 0
tensor(163.7624, grad_fn=<AddBackward0>) 100
tensor(141.6673, grad_fn=<AddBackward0>) 200
tensor(88.5865, grad_fn=<AddBackward0>) 300
tensor(80.3377, grad_fn=<AddBackward0>) 400
tensor(268.8402, grad_fn=<AddBackward0>) 500
tensor(142.4606, grad_fn=<AddBackward0>) 600
tensor(121.9995, grad_fn=<AddBackward0>) 700
…
tensor(99.5927, grad_fn=<AddBackward0>) 99500
tensor(146.4523, grad_fn=<AddBackward0>) 99600
tensor(81.0681, grad_fn=<AddBackward0>) 99700
tensor(102.4367, grad_fn=<AddBackward0>) 99800
tensor(100.2865, grad_fn=<AddBackward0>) 99900
tensor(228.7261, grad_fn=<AddBackward0>) 100000
/work/bjzhang_umass_edu/generative_tmula/preconditioned_generative_modeling/ffjord-sgm/lib/layers/odefunc.py:288: UserWarning: To copy construct from a tensor, it is recommended to use sourceTensor.clone().detach() or sourceTensor.clone().detach().requires_grad_(True), rather than torch.tensor(sourceTensor).
  t = torch.tensor(t).type_as(y)
Sequential(
  (0): Linear(in_features=3, out_features=32, bias=True)
  (1): GELU(approximate='none')
  (2): Linear(in_features=32, out_features=32, bias=True)
  (3): GELU(approximate='none')
  (4): Linear(in_features=32, out_features=32, bias=True)
  (5): GELU(approximate='none')
  (6): Linear(in_features=32, out_features=32, bias=True)
  (7): GELU(approximate='none')
  (8): Linear(in_features=32, out_features=32, bias=True)
  (9): GELU(approximate='none')
  (10): Linear(in_features=32, out_features=32, bias=True)
  (11): GELU(approximate='none')
  (12): Linear(in_features=32, out_features=32, bias=True)
  (13): GELU(approximate='none')
  (14): Linear(in_features=32, out_features=2, bias=True)
)
tensor(137.5374, grad_fn=<AddBackward0>) 0
tensor(152.3395, grad_fn=<AddBackward0>) 100
tensor(97.1810, grad_fn=<AddBackward0>) 200
tensor(70.9340, grad_fn=<AddBackward0>) 300
tensor(149.1189, grad_fn=<AddBackward0>) 400
tensor(253.3199, grad_fn=<AddBackward0>) 500
tensor(140.7168, grad_fn=<AddBackward0>) 600
tensor(151.3379, grad_fn=<AddBackward0>) 700
…
tensor(100.4554, grad_fn=<AddBackward0>) 99500
tensor(153.4508, grad_fn=<AddBackward0>) 99600
tensor(135.6667, grad_fn=<AddBackward0>) 99700
tensor(116.3534, grad_fn=<AddBackward0>) 99800
tensor(94.5591, grad_fn=<AddBackward0>) 99900
tensor(108.1925, grad_fn=<AddBackward0>) 100000
/work/bjzhang_umass_edu/generative_tmula/preconditioned_generative_modeling/ffjord-sgm/lib/layers/odefunc.py:288: UserWarning: To copy construct from a tensor, it is recommended to use sourceTensor.clone().detach() or sourceTensor.clone().detach().requires_grad_(True), rather than torch.tensor(sourceTensor).
  t = torch.tensor(t).type_as(y)
Sequential(
  (0): Linear(in_features=33, out_features=32, bias=True)
  (1): GELU(approximate='none')
  (2): Linear(in_features=32, out_features=32, bias=True)
  (3): GELU(approximate='none')
  (4): Linear(in_features=32, out_features=32, bias=True)
  (5): GELU(approximate='none')
  (6): Linear(in_features=32, out_features=32, bias=True)
  (7): GELU(approximate='none')
  (8): Linear(in_features=32, out_features=2, bias=True)
)
tensor(103.7543, grad_fn=<AddBackward0>) 0
tensor(144.2712, grad_fn=<AddBackward0>) 100
tensor(183.5526, grad_fn=<AddBackward0>) 200
tensor(254.9515, grad_fn=<AddBackward0>) 300
tensor(90.4090, grad_fn=<AddBackward0>) 400
tensor(174.0082, grad_fn=<AddBackward0>) 500
tensor(161.5422, grad_fn=<AddBackward0>) 600
tensor(69.7113, grad_fn=<AddBackward0>) 700
…
tensor(246.1372, grad_fn=<AddBackward0>) 99500
tensor(159.7784, grad_fn=<AddBackward0>) 99600
tensor(149.3454, grad_fn=<AddBackward0>) 99700
tensor(366.9377, grad_fn=<AddBackward0>) 99800
tensor(372.5630, grad_fn=<AddBackward0>) 99900
tensor(80.3189, grad_fn=<AddBackward0>) 100000
/work/bjzhang_umass_edu/generative_tmula/preconditioned_generative_modeling/ffjord-sgm/lib/layers/odefunc.py:288: UserWarning: To copy construct from a tensor, it is recommended to use sourceTensor.clone().detach() or sourceTensor.clone().detach().requires_grad_(True), rather than torch.tensor(sourceTensor).
  t = torch.tensor(t).type_as(y)
Sequential(
  (0): Linear(in_features=33, out_features=32, bias=True)
  (1): GELU(approximate='none')
  (2): Linear(in_features=32, out_features=32, bias=True)
  (3): GELU(approximate='none')
  (4): Linear(in_features=32, out_features=32, bias=True)
  (5): GELU(approximate='none')
  (6): Linear(in_features=32, out_features=32, bias=True)
  (7): GELU(approximate='none')
  (8): Linear(in_features=32, out_features=32, bias=True)
  (9): GELU(approximate='none')
  (10): Linear(in_features=32, out_features=32, bias=True)
  (11): GELU(approximate='none')
  (12): Linear(in_features=32, out_features=2, bias=True)
)
tensor(117.8482, grad_fn=<AddBackward0>) 0
tensor(171.5321, grad_fn=<AddBackward0>) 100
tensor(197.8703, grad_fn=<AddBackward0>) 200
tensor(109.2067, grad_fn=<AddBackward0>) 300
tensor(94.3028, grad_fn=<AddBackward0>) 400
tensor(147.9540, grad_fn=<AddBackward0>) 500
tensor(177.5854, grad_fn=<AddBackward0>) 600
tensor(102.4769, grad_fn=<AddBackward0>) 700
…
