…
tensor(1829.6044, grad_fn=<AddBackward0>) 99600
tensor(1291.8860, grad_fn=<AddBackward0>) 99700
tensor(1628.7375, grad_fn=<AddBackward0>) 99800
tensor(1218.5139, grad_fn=<AddBackward0>) 99900
tensor(1856.9644, grad_fn=<AddBackward0>) 100000
/work/bjzhang_umass_edu/generative_tmula/preconditioned_generative_modeling/ffjord-sgm/lib/layers/odefunc.py:288: UserWarning: To copy construct from a tensor, it is recommended to use sourceTensor.clone().detach() or sourceTensor.clone().detach().requires_grad_(True), rather than torch.tensor(sourceTensor).
  t = torch.tensor(t).type_as(y)
Sequential(
  (0): Linear(in_features=3, out_features=32, bias=True)
  (1): GELU(approximate='none')
  (2): Linear(in_features=32, out_features=32, bias=True)
  (3): GELU(approximate='none')
  (4): Linear(in_features=32, out_features=32, bias=True)
  (5): GELU(approximate='none')
  (6): Linear(in_features=32, out_features=32, bias=True)
  (7): GELU(approximate='none')
  (8): Linear(in_features=32, out_features=32, bias=True)
  (9): GELU(approximate='none')
  (10): Linear(in_features=32, out_features=2, bias=True)
)
tensor(1456.8755, grad_fn=<AddBackward0>) 0
tensor(1383.6075, grad_fn=<AddBackward0>) 100
tensor(1511.1517, grad_fn=<AddBackward0>) 200
tensor(942.8360, grad_fn=<AddBackward0>) 300
tensor(1654.0437, grad_fn=<AddBackward0>) 400
tensor(1500.8960, grad_fn=<AddBackward0>) 500
tensor(1346.9066, grad_fn=<AddBackward0>) 600
tensor(1282.9972, grad_fn=<AddBackward0>) 700
…
tensor(1220.2765, grad_fn=<AddBackward0>) 99500
tensor(1234.6097, grad_fn=<AddBackward0>) 99600
tensor(1903.6528, grad_fn=<AddBackward0>) 99700
tensor(1164.1392, grad_fn=<AddBackward0>) 99800
tensor(839.9884, grad_fn=<AddBackward0>) 99900
tensor(861.8141, grad_fn=<AddBackward0>) 100000
/work/bjzhang_umass_edu/generative_tmula/preconditioned_generative_modeling/ffjord-sgm/lib/layers/odefunc.py:288: UserWarning: To copy construct from a tensor, it is recommended to use sourceTensor.clone().detach() or sourceTensor.clone().detach().requires_grad_(True), rather than torch.tensor(sourceTensor).
  t = torch.tensor(t).type_as(y)
Sequential(
  (0): Linear(in_features=3, out_features=32, bias=True)
  (1): GELU(approximate='none')
  (2): Linear(in_features=32, out_features=32, bias=True)
  (3): GELU(approximate='none')
  (4): Linear(in_features=32, out_features=32, bias=True)
  (5): GELU(approximate='none')
  (6): Linear(in_features=32, out_features=32, bias=True)
  (7): GELU(approximate='none')
  (8): Linear(in_features=32, out_features=32, bias=True)
  (9): GELU(approximate='none')
  (10): Linear(in_features=32, out_features=32, bias=True)
  (11): GELU(approximate='none')
  (12): Linear(in_features=32, out_features=32, bias=True)
  (13): GELU(approximate='none')
  (14): Linear(in_features=32, out_features=2, bias=True)
)
tensor(1237.7573, grad_fn=<AddBackward0>) 0
tensor(1075.2698, grad_fn=<AddBackward0>) 100
tensor(980.3292, grad_fn=<AddBackward0>) 200
tensor(1275.5396, grad_fn=<AddBackward0>) 300
tensor(885.9830, grad_fn=<AddBackward0>) 400
tensor(1443.5516, grad_fn=<AddBackward0>) 500
tensor(1123.9490, grad_fn=<AddBackward0>) 600
tensor(906.1205, grad_fn=<AddBackward0>) 700
…
tensor(1338.7241, grad_fn=<AddBackward0>) 99500
tensor(909.7960, grad_fn=<AddBackward0>) 99600
tensor(1313.7319, grad_fn=<AddBackward0>) 99700
tensor(808.8275, grad_fn=<AddBackward0>) 99800
tensor(1268.8730, grad_fn=<AddBackward0>) 99900
tensor(1180.5137, grad_fn=<AddBackward0>) 100000
/work/bjzhang_umass_edu/generative_tmula/preconditioned_generative_modeling/ffjord-sgm/lib/layers/odefunc.py:288: UserWarning: To copy construct from a tensor, it is recommended to use sourceTensor.clone().detach() or sourceTensor.clone().detach().requires_grad_(True), rather than torch.tensor(sourceTensor).
  t = torch.tensor(t).type_as(y)
Sequential(
  (0): Linear(in_features=33, out_features=32, bias=True)
  (1): GELU(approximate='none')
  (2): Linear(in_features=32, out_features=32, bias=True)
  (3): GELU(approximate='none')
  (4): Linear(in_features=32, out_features=32, bias=True)
  (5): GELU(approximate='none')
  (6): Linear(in_features=32, out_features=32, bias=True)
  (7): GELU(approximate='none')
  (8): Linear(in_features=32, out_features=2, bias=True)
)
tensor(1270.0443, grad_fn=<AddBackward0>) 0
tensor(1373.8740, grad_fn=<AddBackward0>) 100
tensor(1250.4670, grad_fn=<AddBackward0>) 200
tensor(1102.3510, grad_fn=<AddBackward0>) 300
tensor(965.8880, grad_fn=<AddBackward0>) 400
tensor(1067.7078, grad_fn=<AddBackward0>) 500
tensor(1089.7345, grad_fn=<AddBackward0>) 600
tensor(1604.6941, grad_fn=<AddBackward0>) 700
…
tensor(1696.1747, grad_fn=<AddBackward0>) 99600
tensor(1137.2899, grad_fn=<AddBackward0>) 99700
tensor(1214.8247, grad_fn=<AddBackward0>) 99800
tensor(1128.7239, grad_fn=<AddBackward0>) 99900
tensor(1122.5426, grad_fn=<AddBackward0>) 100000
/work/bjzhang_umass_edu/generative_tmula/preconditioned_generative_modeling/ffjord-sgm/lib/layers/odefunc.py:288: UserWarning: To copy construct from a tensor, it is recommended to use sourceTensor.clone().detach() or sourceTensor.clone().detach().requires_grad_(True), rather than torch.tensor(sourceTensor).
  t = torch.tensor(t).type_as(y)
Sequential(
  (0): Linear(in_features=33, out_features=32, bias=True)
  (1): GELU(approximate='none')
  (2): Linear(in_features=32, out_features=32, bias=True)
  (3): GELU(approximate='none')
  (4): Linear(in_features=32, out_features=32, bias=True)
  (5): GELU(approximate='none')
  (6): Linear(in_features=32, out_features=32, bias=True)
  (7): GELU(approximate='none')
  (8): Linear(in_features=32, out_features=32, bias=True)
  (9): GELU(approximate='none')
  (10): Linear(in_features=32, out_features=32, bias=True)
  (11): GELU(approximate='none')
  (12): Linear(in_features=32, out_features=2, bias=True)
)
tensor(960.0062, grad_fn=<AddBackward0>) 0
tensor(1243.4258, grad_fn=<AddBackward0>) 100
tensor(824.6256, grad_fn=<AddBackward0>) 200
tensor(2216.9285, grad_fn=<AddBackward0>) 300
tensor(1478.9523, grad_fn=<AddBackward0>) 400
tensor(1681.7844, grad_fn=<AddBackward0>) 500
tensor(1008.7715, grad_fn=<AddBackward0>) 600
tensor(1145.8070, grad_fn=<AddBackward0>) 700
…
