…
tensor(978.2184, grad_fn=<AddBackward0>) 99500
tensor(747.9890, grad_fn=<AddBackward0>) 99600
tensor(536.4224, grad_fn=<AddBackward0>) 99700
tensor(569.3167, grad_fn=<AddBackward0>) 99800
tensor(725.9538, grad_fn=<AddBackward0>) 99900
tensor(846.3494, grad_fn=<AddBackward0>) 100000
/work/bjzhang_umass_edu/generative_tmula/preconditioned_generative_modeling/ffjord-sgm/lib/layers/odefunc.py:288: UserWarning: To copy construct from a tensor, it is recommended to use sourceTensor.clone().detach() or sourceTensor.clone().detach().requires_grad_(True), rather than torch.tensor(sourceTensor).
  t = torch.tensor(t).type_as(y)
Sequential(
  (0): Linear(in_features=3, out_features=32, bias=True)
  (1): GELU(approximate='none')
  (2): Linear(in_features=32, out_features=32, bias=True)
  (3): GELU(approximate='none')
  (4): Linear(in_features=32, out_features=32, bias=True)
  (5): GELU(approximate='none')
  (6): Linear(in_features=32, out_features=32, bias=True)
  (7): GELU(approximate='none')
  (8): Linear(in_features=32, out_features=32, bias=True)
  (9): GELU(approximate='none')
  (10): Linear(in_features=32, out_features=2, bias=True)
)
tensor(1082.5524, grad_fn=<AddBackward0>) 0
tensor(669.9942, grad_fn=<AddBackward0>) 100
tensor(996.4920, grad_fn=<AddBackward0>) 200
tensor(2077.6628, grad_fn=<AddBackward0>) 300
tensor(579.6279, grad_fn=<AddBackward0>) 400
tensor(1242.7031, grad_fn=<AddBackward0>) 500
tensor(551.2996, grad_fn=<AddBackward0>) 600
tensor(595.7457, grad_fn=<AddBackward0>) 700
…
tensor(747.3218, grad_fn=<AddBackward0>) 99500
tensor(438.6002, grad_fn=<AddBackward0>) 99600
tensor(1030.8861, grad_fn=<AddBackward0>) 99700
tensor(552.9837, grad_fn=<AddBackward0>) 99800
tensor(558.9501, grad_fn=<AddBackward0>) 99900
tensor(599.9051, grad_fn=<AddBackward0>) 100000
/work/bjzhang_umass_edu/generative_tmula/preconditioned_generative_modeling/ffjord-sgm/lib/layers/odefunc.py:288: UserWarning: To copy construct from a tensor, it is recommended to use sourceTensor.clone().detach() or sourceTensor.clone().detach().requires_grad_(True), rather than torch.tensor(sourceTensor).
  t = torch.tensor(t).type_as(y)
Sequential(
  (0): Linear(in_features=3, out_features=32, bias=True)
  (1): GELU(approximate='none')
  (2): Linear(in_features=32, out_features=32, bias=True)
  (3): GELU(approximate='none')
  (4): Linear(in_features=32, out_features=32, bias=True)
  (5): GELU(approximate='none')
  (6): Linear(in_features=32, out_features=32, bias=True)
  (7): GELU(approximate='none')
  (8): Linear(in_features=32, out_features=32, bias=True)
  (9): GELU(approximate='none')
  (10): Linear(in_features=32, out_features=32, bias=True)
  (11): GELU(approximate='none')
  (12): Linear(in_features=32, out_features=32, bias=True)
  (13): GELU(approximate='none')
  (14): Linear(in_features=32, out_features=2, bias=True)
)
tensor(624.8840, grad_fn=<AddBackward0>) 0
tensor(434.4796, grad_fn=<AddBackward0>) 100
tensor(965.3344, grad_fn=<AddBackward0>) 200
tensor(583.3173, grad_fn=<AddBackward0>) 300
tensor(449.5020, grad_fn=<AddBackward0>) 400
tensor(346.8126, grad_fn=<AddBackward0>) 500
tensor(776.4109, grad_fn=<AddBackward0>) 600
tensor(1264.8557, grad_fn=<AddBackward0>) 700
…
tensor(729.3887, grad_fn=<AddBackward0>) 99500
tensor(592.1785, grad_fn=<AddBackward0>) 99600
tensor(370.1144, grad_fn=<AddBackward0>) 99700
tensor(628.4790, grad_fn=<AddBackward0>) 99800
tensor(329.4542, grad_fn=<AddBackward0>) 99900
tensor(436.6008, grad_fn=<AddBackward0>) 100000
/work/bjzhang_umass_edu/generative_tmula/preconditioned_generative_modeling/ffjord-sgm/lib/layers/odefunc.py:288: UserWarning: To copy construct from a tensor, it is recommended to use sourceTensor.clone().detach() or sourceTensor.clone().detach().requires_grad_(True), rather than torch.tensor(sourceTensor).
  t = torch.tensor(t).type_as(y)
Sequential(
  (0): Linear(in_features=33, out_features=32, bias=True)
  (1): GELU(approximate='none')
  (2): Linear(in_features=32, out_features=32, bias=True)
  (3): GELU(approximate='none')
  (4): Linear(in_features=32, out_features=32, bias=True)
  (5): GELU(approximate='none')
  (6): Linear(in_features=32, out_features=32, bias=True)
  (7): GELU(approximate='none')
  (8): Linear(in_features=32, out_features=2, bias=True)
)
tensor(527.0068, grad_fn=<AddBackward0>) 0
tensor(609.2853, grad_fn=<AddBackward0>) 100
tensor(605.5850, grad_fn=<AddBackward0>) 200
tensor(461.7788, grad_fn=<AddBackward0>) 300
tensor(585.0914, grad_fn=<AddBackward0>) 400
tensor(605.2974, grad_fn=<AddBackward0>) 500
tensor(572.7993, grad_fn=<AddBackward0>) 600
tensor(503.1840, grad_fn=<AddBackward0>) 700
…
tensor(619.6346, grad_fn=<AddBackward0>) 99500
tensor(794.6555, grad_fn=<AddBackward0>) 99600
tensor(442.6732, grad_fn=<AddBackward0>) 99700
tensor(422.7055, grad_fn=<AddBackward0>) 99800
tensor(479.2390, grad_fn=<AddBackward0>) 99900
tensor(527.3784, grad_fn=<AddBackward0>) 100000
/work/bjzhang_umass_edu/generative_tmula/preconditioned_generative_modeling/ffjord-sgm/lib/layers/odefunc.py:288: UserWarning: To copy construct from a tensor, it is recommended to use sourceTensor.clone().detach() or sourceTensor.clone().detach().requires_grad_(True), rather than torch.tensor(sourceTensor).
  t = torch.tensor(t).type_as(y)
Sequential(
  (0): Linear(in_features=33, out_features=32, bias=True)
  (1): GELU(approximate='none')
  (2): Linear(in_features=32, out_features=32, bias=True)
  (3): GELU(approximate='none')
  (4): Linear(in_features=32, out_features=32, bias=True)
  (5): GELU(approximate='none')
  (6): Linear(in_features=32, out_features=32, bias=True)
  (7): GELU(approximate='none')
  (8): Linear(in_features=32, out_features=32, bias=True)
  (9): GELU(approximate='none')
  (10): Linear(in_features=32, out_features=32, bias=True)
  (11): GELU(approximate='none')
  (12): Linear(in_features=32, out_features=2, bias=True)
)
tensor(977.7332, grad_fn=<AddBackward0>) 0
tensor(774.9012, grad_fn=<AddBackward0>) 100
tensor(456.8583, grad_fn=<AddBackward0>) 200
tensor(544.7434, grad_fn=<AddBackward0>) 300
tensor(864.1963, grad_fn=<AddBackward0>) 400
tensor(419.9228, grad_fn=<AddBackward0>) 500
tensor(415.4147, grad_fn=<AddBackward0>) 600
tensor(468.1682, grad_fn=<AddBackward0>) 700
…
