…
tensor(1029.5165, grad_fn=<AddBackward0>) 99500
tensor(996.8399, grad_fn=<AddBackward0>) 99600
tensor(1752.8732, grad_fn=<AddBackward0>) 99700
tensor(919.5814, grad_fn=<AddBackward0>) 99800
tensor(1118.0819, grad_fn=<AddBackward0>) 99900
tensor(1133.1490, grad_fn=<AddBackward0>) 100000
/work/bjzhang_umass_edu/generative_tmula/preconditioned_generative_modeling/ffjord-sgm/lib/layers/odefunc.py:288: UserWarning: To copy construct from a tensor, it is recommended to use sourceTensor.clone().detach() or sourceTensor.clone().detach().requires_grad_(True), rather than torch.tensor(sourceTensor).
  t = torch.tensor(t).type_as(y)
Sequential(
  (0): Linear(in_features=3, out_features=32, bias=True)
  (1): GELU(approximate='none')
  (2): Linear(in_features=32, out_features=32, bias=True)
  (3): GELU(approximate='none')
  (4): Linear(in_features=32, out_features=32, bias=True)
  (5): GELU(approximate='none')
  (6): Linear(in_features=32, out_features=32, bias=True)
  (7): GELU(approximate='none')
  (8): Linear(in_features=32, out_features=32, bias=True)
  (9): GELU(approximate='none')
  (10): Linear(in_features=32, out_features=2, bias=True)
)
tensor(774.7017, grad_fn=<AddBackward0>) 0
tensor(2278.4126, grad_fn=<AddBackward0>) 100
tensor(3103.3198, grad_fn=<AddBackward0>) 200
tensor(846.1234, grad_fn=<AddBackward0>) 300
tensor(1540.0255, grad_fn=<AddBackward0>) 400
tensor(752.0322, grad_fn=<AddBackward0>) 500
tensor(1030.7900, grad_fn=<AddBackward0>) 600
tensor(1994.3083, grad_fn=<AddBackward0>) 700
…
tensor(682.1266, grad_fn=<AddBackward0>) 99500
tensor(1327.7108, grad_fn=<AddBackward0>) 99600
tensor(897.6688, grad_fn=<AddBackward0>) 99700
tensor(1005.6480, grad_fn=<AddBackward0>) 99800
tensor(762.2532, grad_fn=<AddBackward0>) 99900
tensor(919.3328, grad_fn=<AddBackward0>) 100000
/work/bjzhang_umass_edu/generative_tmula/preconditioned_generative_modeling/ffjord-sgm/lib/layers/odefunc.py:288: UserWarning: To copy construct from a tensor, it is recommended to use sourceTensor.clone().detach() or sourceTensor.clone().detach().requires_grad_(True), rather than torch.tensor(sourceTensor).
  t = torch.tensor(t).type_as(y)
Sequential(
  (0): Linear(in_features=3, out_features=32, bias=True)
  (1): GELU(approximate='none')
  (2): Linear(in_features=32, out_features=32, bias=True)
  (3): GELU(approximate='none')
  (4): Linear(in_features=32, out_features=32, bias=True)
  (5): GELU(approximate='none')
  (6): Linear(in_features=32, out_features=32, bias=True)
  (7): GELU(approximate='none')
  (8): Linear(in_features=32, out_features=32, bias=True)
  (9): GELU(approximate='none')
  (10): Linear(in_features=32, out_features=32, bias=True)
  (11): GELU(approximate='none')
  (12): Linear(in_features=32, out_features=32, bias=True)
  (13): GELU(approximate='none')
  (14): Linear(in_features=32, out_features=2, bias=True)
)
tensor(1974.0244, grad_fn=<AddBackward0>) 0
tensor(901.2066, grad_fn=<AddBackward0>) 100
tensor(976.3644, grad_fn=<AddBackward0>) 200
tensor(1052.7203, grad_fn=<AddBackward0>) 300
tensor(746.5563, grad_fn=<AddBackward0>) 400
tensor(794.6446, grad_fn=<AddBackward0>) 500
tensor(812.6438, grad_fn=<AddBackward0>) 600
tensor(720.4475, grad_fn=<AddBackward0>) 700
…
tensor(1560.0138, grad_fn=<AddBackward0>) 99500
tensor(1048.7321, grad_fn=<AddBackward0>) 99600
tensor(901.0395, grad_fn=<AddBackward0>) 99700
tensor(1833.5370, grad_fn=<AddBackward0>) 99800
tensor(1263.4014, grad_fn=<AddBackward0>) 99900
tensor(1022.3112, grad_fn=<AddBackward0>) 100000
/work/bjzhang_umass_edu/generative_tmula/preconditioned_generative_modeling/ffjord-sgm/lib/layers/odefunc.py:288: UserWarning: To copy construct from a tensor, it is recommended to use sourceTensor.clone().detach() or sourceTensor.clone().detach().requires_grad_(True), rather than torch.tensor(sourceTensor).
  t = torch.tensor(t).type_as(y)
Sequential(
  (0): Linear(in_features=33, out_features=32, bias=True)
  (1): GELU(approximate='none')
  (2): Linear(in_features=32, out_features=32, bias=True)
  (3): GELU(approximate='none')
  (4): Linear(in_features=32, out_features=32, bias=True)
  (5): GELU(approximate='none')
  (6): Linear(in_features=32, out_features=32, bias=True)
  (7): GELU(approximate='none')
  (8): Linear(in_features=32, out_features=2, bias=True)
)
tensor(1850.6854, grad_fn=<AddBackward0>) 0
tensor(1876.2014, grad_fn=<AddBackward0>) 100
tensor(1236.6992, grad_fn=<AddBackward0>) 200
tensor(819.3770, grad_fn=<AddBackward0>) 300
tensor(910.2393, grad_fn=<AddBackward0>) 400
tensor(1565.0741, grad_fn=<AddBackward0>) 500
tensor(1457.5486, grad_fn=<AddBackward0>) 600
tensor(855.3635, grad_fn=<AddBackward0>) 700
…
tensor(1165.9757, grad_fn=<AddBackward0>) 99500
tensor(1453.2915, grad_fn=<AddBackward0>) 99600
tensor(798.0179, grad_fn=<AddBackward0>) 99700
tensor(971.7751, grad_fn=<AddBackward0>) 99800
tensor(815.4330, grad_fn=<AddBackward0>) 99900
tensor(2616.4900, grad_fn=<AddBackward0>) 100000
/work/bjzhang_umass_edu/generative_tmula/preconditioned_generative_modeling/ffjord-sgm/lib/layers/odefunc.py:288: UserWarning: To copy construct from a tensor, it is recommended to use sourceTensor.clone().detach() or sourceTensor.clone().detach().requires_grad_(True), rather than torch.tensor(sourceTensor).
  t = torch.tensor(t).type_as(y)
Sequential(
  (0): Linear(in_features=33, out_features=32, bias=True)
  (1): GELU(approximate='none')
  (2): Linear(in_features=32, out_features=32, bias=True)
  (3): GELU(approximate='none')
  (4): Linear(in_features=32, out_features=32, bias=True)
  (5): GELU(approximate='none')
  (6): Linear(in_features=32, out_features=32, bias=True)
  (7): GELU(approximate='none')
  (8): Linear(in_features=32, out_features=32, bias=True)
  (9): GELU(approximate='none')
  (10): Linear(in_features=32, out_features=32, bias=True)
  (11): GELU(approximate='none')
  (12): Linear(in_features=32, out_features=2, bias=True)
)
tensor(965.4741, grad_fn=<AddBackward0>) 0
tensor(676.1658, grad_fn=<AddBackward0>) 100
tensor(1527.7583, grad_fn=<AddBackward0>) 200
tensor(978.7206, grad_fn=<AddBackward0>) 300
tensor(866.8032, grad_fn=<AddBackward0>) 400
tensor(1261.1787, grad_fn=<AddBackward0>) 500
tensor(943.2065, grad_fn=<AddBackward0>) 600
tensor(581.5618, grad_fn=<AddBackward0>) 700
…
