…
tensor(328.3300, grad_fn=<AddBackward0>) 99500
tensor(195.6754, grad_fn=<AddBackward0>) 99600
tensor(116.0864, grad_fn=<AddBackward0>) 99700
tensor(173.8638, grad_fn=<AddBackward0>) 99800
tensor(182.9811, grad_fn=<AddBackward0>) 99900
tensor(196.8565, grad_fn=<AddBackward0>) 100000
/work/bjzhang_umass_edu/generative_tmula/preconditioned_generative_modeling/ffjord-sgm/lib/layers/odefunc.py:288: UserWarning: To copy construct from a tensor, it is recommended to use sourceTensor.clone().detach() or sourceTensor.clone().detach().requires_grad_(True), rather than torch.tensor(sourceTensor).
  t = torch.tensor(t).type_as(y)
Sequential(
  (0): Linear(in_features=3, out_features=32, bias=True)
  (1): GELU(approximate='none')
  (2): Linear(in_features=32, out_features=32, bias=True)
  (3): GELU(approximate='none')
  (4): Linear(in_features=32, out_features=32, bias=True)
  (5): GELU(approximate='none')
  (6): Linear(in_features=32, out_features=32, bias=True)
  (7): GELU(approximate='none')
  (8): Linear(in_features=32, out_features=32, bias=True)
  (9): GELU(approximate='none')
  (10): Linear(in_features=32, out_features=2, bias=True)
)
tensor(138.6954, grad_fn=<AddBackward0>) 0
tensor(176.9444, grad_fn=<AddBackward0>) 100
tensor(137.2272, grad_fn=<AddBackward0>) 200
tensor(172.5083, grad_fn=<AddBackward0>) 300
tensor(162.6018, grad_fn=<AddBackward0>) 400
tensor(203.9917, grad_fn=<AddBackward0>) 500
tensor(241.0747, grad_fn=<AddBackward0>) 600
tensor(349.6781, grad_fn=<AddBackward0>) 700
…
tensor(437.6137, grad_fn=<AddBackward0>) 99500
tensor(256.2837, grad_fn=<AddBackward0>) 99600
tensor(223.5844, grad_fn=<AddBackward0>) 99700
tensor(208.6370, grad_fn=<AddBackward0>) 99800
tensor(223.2635, grad_fn=<AddBackward0>) 99900
tensor(169.1533, grad_fn=<AddBackward0>) 100000
/work/bjzhang_umass_edu/generative_tmula/preconditioned_generative_modeling/ffjord-sgm/lib/layers/odefunc.py:288: UserWarning: To copy construct from a tensor, it is recommended to use sourceTensor.clone().detach() or sourceTensor.clone().detach().requires_grad_(True), rather than torch.tensor(sourceTensor).
  t = torch.tensor(t).type_as(y)
Sequential(
  (0): Linear(in_features=3, out_features=32, bias=True)
  (1): GELU(approximate='none')
  (2): Linear(in_features=32, out_features=32, bias=True)
  (3): GELU(approximate='none')
  (4): Linear(in_features=32, out_features=32, bias=True)
  (5): GELU(approximate='none')
  (6): Linear(in_features=32, out_features=32, bias=True)
  (7): GELU(approximate='none')
  (8): Linear(in_features=32, out_features=32, bias=True)
  (9): GELU(approximate='none')
  (10): Linear(in_features=32, out_features=32, bias=True)
  (11): GELU(approximate='none')
  (12): Linear(in_features=32, out_features=32, bias=True)
  (13): GELU(approximate='none')
  (14): Linear(in_features=32, out_features=2, bias=True)
)
tensor(235.8705, grad_fn=<AddBackward0>) 0
tensor(251.9274, grad_fn=<AddBackward0>) 100
tensor(323.0362, grad_fn=<AddBackward0>) 200
tensor(214.9648, grad_fn=<AddBackward0>) 300
tensor(176.2540, grad_fn=<AddBackward0>) 400
tensor(115.3514, grad_fn=<AddBackward0>) 500
tensor(157.0650, grad_fn=<AddBackward0>) 600
tensor(314.6144, grad_fn=<AddBackward0>) 700
…
tensor(179.2735, grad_fn=<AddBackward0>) 99500
tensor(175.5754, grad_fn=<AddBackward0>) 99600
tensor(220.1201, grad_fn=<AddBackward0>) 99700
tensor(295.6204, grad_fn=<AddBackward0>) 99800
tensor(135.2484, grad_fn=<AddBackward0>) 99900
tensor(201.6462, grad_fn=<AddBackward0>) 100000
/work/bjzhang_umass_edu/generative_tmula/preconditioned_generative_modeling/ffjord-sgm/lib/layers/odefunc.py:288: UserWarning: To copy construct from a tensor, it is recommended to use sourceTensor.clone().detach() or sourceTensor.clone().detach().requires_grad_(True), rather than torch.tensor(sourceTensor).
  t = torch.tensor(t).type_as(y)
Sequential(
  (0): Linear(in_features=33, out_features=32, bias=True)
  (1): GELU(approximate='none')
  (2): Linear(in_features=32, out_features=32, bias=True)
  (3): GELU(approximate='none')
  (4): Linear(in_features=32, out_features=32, bias=True)
  (5): GELU(approximate='none')
  (6): Linear(in_features=32, out_features=32, bias=True)
  (7): GELU(approximate='none')
  (8): Linear(in_features=32, out_features=2, bias=True)
)
tensor(161.8715, grad_fn=<AddBackward0>) 0
tensor(217.3081, grad_fn=<AddBackward0>) 100
tensor(218.9917, grad_fn=<AddBackward0>) 200
tensor(202.4401, grad_fn=<AddBackward0>) 300
tensor(236.5774, grad_fn=<AddBackward0>) 400
tensor(191.1752, grad_fn=<AddBackward0>) 500
tensor(177.1260, grad_fn=<AddBackward0>) 600
tensor(200.6671, grad_fn=<AddBackward0>) 700
…
tensor(312.4711, grad_fn=<AddBackward0>) 99500
tensor(161.6913, grad_fn=<AddBackward0>) 99600
tensor(219.1055, grad_fn=<AddBackward0>) 99700
tensor(230.2812, grad_fn=<AddBackward0>) 99800
tensor(192.9739, grad_fn=<AddBackward0>) 99900
tensor(121.7411, grad_fn=<AddBackward0>) 100000
/work/bjzhang_umass_edu/generative_tmula/preconditioned_generative_modeling/ffjord-sgm/lib/layers/odefunc.py:288: UserWarning: To copy construct from a tensor, it is recommended to use sourceTensor.clone().detach() or sourceTensor.clone().detach().requires_grad_(True), rather than torch.tensor(sourceTensor).
  t = torch.tensor(t).type_as(y)
Sequential(
  (0): Linear(in_features=33, out_features=32, bias=True)
  (1): GELU(approximate='none')
  (2): Linear(in_features=32, out_features=32, bias=True)
  (3): GELU(approximate='none')
  (4): Linear(in_features=32, out_features=32, bias=True)
  (5): GELU(approximate='none')
  (6): Linear(in_features=32, out_features=32, bias=True)
  (7): GELU(approximate='none')
  (8): Linear(in_features=32, out_features=32, bias=True)
  (9): GELU(approximate='none')
  (10): Linear(in_features=32, out_features=32, bias=True)
  (11): GELU(approximate='none')
  (12): Linear(in_features=32, out_features=2, bias=True)
)
tensor(136.5067, grad_fn=<AddBackward0>) 0
tensor(187.0585, grad_fn=<AddBackward0>) 100
tensor(156.2099, grad_fn=<AddBackward0>) 200
tensor(215.7151, grad_fn=<AddBackward0>) 300
tensor(195.4945, grad_fn=<AddBackward0>) 400
tensor(119.6775, grad_fn=<AddBackward0>) 500
tensor(133.3990, grad_fn=<AddBackward0>) 600
tensor(176.2410, grad_fn=<AddBackward0>) 700
…
