…
tensor(258.4137, grad_fn=<AddBackward0>) 99500
tensor(360.1147, grad_fn=<AddBackward0>) 99600
tensor(273.5369, grad_fn=<AddBackward0>) 99700
tensor(400.6280, grad_fn=<AddBackward0>) 99800
tensor(224.1174, grad_fn=<AddBackward0>) 99900
tensor(196.5777, grad_fn=<AddBackward0>) 100000
/work/bjzhang_umass_edu/generative_tmula/preconditioned_generative_modeling/ffjord-sgm/lib/layers/odefunc.py:288: UserWarning: To copy construct from a tensor, it is recommended to use sourceTensor.clone().detach() or sourceTensor.clone().detach().requires_grad_(True), rather than torch.tensor(sourceTensor).
  t = torch.tensor(t).type_as(y)
Sequential(
  (0): Linear(in_features=3, out_features=32, bias=True)
  (1): GELU(approximate='none')
  (2): Linear(in_features=32, out_features=32, bias=True)
  (3): GELU(approximate='none')
  (4): Linear(in_features=32, out_features=32, bias=True)
  (5): GELU(approximate='none')
  (6): Linear(in_features=32, out_features=32, bias=True)
  (7): GELU(approximate='none')
  (8): Linear(in_features=32, out_features=32, bias=True)
  (9): GELU(approximate='none')
  (10): Linear(in_features=32, out_features=2, bias=True)
)
tensor(191.4807, grad_fn=<AddBackward0>) 0
tensor(289.2325, grad_fn=<AddBackward0>) 100
tensor(187.7852, grad_fn=<AddBackward0>) 200
tensor(525.7015, grad_fn=<AddBackward0>) 300
tensor(297.7526, grad_fn=<AddBackward0>) 400
tensor(440.8675, grad_fn=<AddBackward0>) 500
tensor(427.5045, grad_fn=<AddBackward0>) 600
tensor(545.9163, grad_fn=<AddBackward0>) 700
…
tensor(556.4070, grad_fn=<AddBackward0>) 99500
tensor(217.5505, grad_fn=<AddBackward0>) 99600
tensor(188.5616, grad_fn=<AddBackward0>) 99700
tensor(232.7399, grad_fn=<AddBackward0>) 99800
tensor(247.5492, grad_fn=<AddBackward0>) 99900
tensor(175.7389, grad_fn=<AddBackward0>) 100000
/work/bjzhang_umass_edu/generative_tmula/preconditioned_generative_modeling/ffjord-sgm/lib/layers/odefunc.py:288: UserWarning: To copy construct from a tensor, it is recommended to use sourceTensor.clone().detach() or sourceTensor.clone().detach().requires_grad_(True), rather than torch.tensor(sourceTensor).
  t = torch.tensor(t).type_as(y)
Sequential(
  (0): Linear(in_features=3, out_features=32, bias=True)
  (1): GELU(approximate='none')
  (2): Linear(in_features=32, out_features=32, bias=True)
  (3): GELU(approximate='none')
  (4): Linear(in_features=32, out_features=32, bias=True)
  (5): GELU(approximate='none')
  (6): Linear(in_features=32, out_features=32, bias=True)
  (7): GELU(approximate='none')
  (8): Linear(in_features=32, out_features=32, bias=True)
  (9): GELU(approximate='none')
  (10): Linear(in_features=32, out_features=32, bias=True)
  (11): GELU(approximate='none')
  (12): Linear(in_features=32, out_features=32, bias=True)
  (13): GELU(approximate='none')
  (14): Linear(in_features=32, out_features=2, bias=True)
)
tensor(203.9198, grad_fn=<AddBackward0>) 0
tensor(374.9960, grad_fn=<AddBackward0>) 100
tensor(230.8724, grad_fn=<AddBackward0>) 200
tensor(299.1850, grad_fn=<AddBackward0>) 300
tensor(449.0488, grad_fn=<AddBackward0>) 400
tensor(367.3059, grad_fn=<AddBackward0>) 500
tensor(368.2379, grad_fn=<AddBackward0>) 600
tensor(698.9623, grad_fn=<AddBackward0>) 700
…
tensor(197.3537, grad_fn=<AddBackward0>) 99500
tensor(295.8265, grad_fn=<AddBackward0>) 99600
tensor(367.1935, grad_fn=<AddBackward0>) 99700
tensor(393.5331, grad_fn=<AddBackward0>) 99800
tensor(278.7354, grad_fn=<AddBackward0>) 99900
tensor(390.4801, grad_fn=<AddBackward0>) 100000
/work/bjzhang_umass_edu/generative_tmula/preconditioned_generative_modeling/ffjord-sgm/lib/layers/odefunc.py:288: UserWarning: To copy construct from a tensor, it is recommended to use sourceTensor.clone().detach() or sourceTensor.clone().detach().requires_grad_(True), rather than torch.tensor(sourceTensor).
  t = torch.tensor(t).type_as(y)
Sequential(
  (0): Linear(in_features=33, out_features=32, bias=True)
  (1): GELU(approximate='none')
  (2): Linear(in_features=32, out_features=32, bias=True)
  (3): GELU(approximate='none')
  (4): Linear(in_features=32, out_features=32, bias=True)
  (5): GELU(approximate='none')
  (6): Linear(in_features=32, out_features=32, bias=True)
  (7): GELU(approximate='none')
  (8): Linear(in_features=32, out_features=2, bias=True)
)
tensor(460.2448, grad_fn=<AddBackward0>) 0
tensor(217.1537, grad_fn=<AddBackward0>) 100
tensor(474.9633, grad_fn=<AddBackward0>) 200
tensor(218.8664, grad_fn=<AddBackward0>) 300
tensor(248.5632, grad_fn=<AddBackward0>) 400
tensor(482.6590, grad_fn=<AddBackward0>) 500
tensor(604.6737, grad_fn=<AddBackward0>) 600
tensor(279.1057, grad_fn=<AddBackward0>) 700
…
tensor(206.3312, grad_fn=<AddBackward0>) 99500
tensor(237.3052, grad_fn=<AddBackward0>) 99600
tensor(237.0222, grad_fn=<AddBackward0>) 99700
tensor(198.3998, grad_fn=<AddBackward0>) 99800
tensor(334.5451, grad_fn=<AddBackward0>) 99900
tensor(489.5241, grad_fn=<AddBackward0>) 100000
/work/bjzhang_umass_edu/generative_tmula/preconditioned_generative_modeling/ffjord-sgm/lib/layers/odefunc.py:288: UserWarning: To copy construct from a tensor, it is recommended to use sourceTensor.clone().detach() or sourceTensor.clone().detach().requires_grad_(True), rather than torch.tensor(sourceTensor).
  t = torch.tensor(t).type_as(y)
Sequential(
  (0): Linear(in_features=33, out_features=32, bias=True)
  (1): GELU(approximate='none')
  (2): Linear(in_features=32, out_features=32, bias=True)
  (3): GELU(approximate='none')
  (4): Linear(in_features=32, out_features=32, bias=True)
  (5): GELU(approximate='none')
  (6): Linear(in_features=32, out_features=32, bias=True)
  (7): GELU(approximate='none')
  (8): Linear(in_features=32, out_features=32, bias=True)
  (9): GELU(approximate='none')
  (10): Linear(in_features=32, out_features=32, bias=True)
  (11): GELU(approximate='none')
  (12): Linear(in_features=32, out_features=2, bias=True)
)
tensor(268.2806, grad_fn=<AddBackward0>) 0
tensor(238.9048, grad_fn=<AddBackward0>) 100
tensor(226.4973, grad_fn=<AddBackward0>) 200
tensor(260.1915, grad_fn=<AddBackward0>) 300
tensor(364.6523, grad_fn=<AddBackward0>) 400
tensor(353.9410, grad_fn=<AddBackward0>) 500
tensor(239.5962, grad_fn=<AddBackward0>) 600
tensor(188.7026, grad_fn=<AddBackward0>) 700
…
