…
tensor(112.9093, grad_fn=<AddBackward0>) 99500
tensor(103.5583, grad_fn=<AddBackward0>) 99600
tensor(192.5248, grad_fn=<AddBackward0>) 99700
tensor(154.4028, grad_fn=<AddBackward0>) 99800
tensor(133.0854, grad_fn=<AddBackward0>) 99900
tensor(101.3295, grad_fn=<AddBackward0>) 100000
/work/bjzhang_umass_edu/generative_tmula/preconditioned_generative_modeling/ffjord-sgm/lib/layers/odefunc.py:288: UserWarning: To copy construct from a tensor, it is recommended to use sourceTensor.clone().detach() or sourceTensor.clone().detach().requires_grad_(True), rather than torch.tensor(sourceTensor).
  t = torch.tensor(t).type_as(y)
Sequential(
  (0): Linear(in_features=3, out_features=32, bias=True)
  (1): GELU(approximate='none')
  (2): Linear(in_features=32, out_features=32, bias=True)
  (3): GELU(approximate='none')
  (4): Linear(in_features=32, out_features=32, bias=True)
  (5): GELU(approximate='none')
  (6): Linear(in_features=32, out_features=32, bias=True)
  (7): GELU(approximate='none')
  (8): Linear(in_features=32, out_features=32, bias=True)
  (9): GELU(approximate='none')
  (10): Linear(in_features=32, out_features=2, bias=True)
)
tensor(164.2507, grad_fn=<AddBackward0>) 0
tensor(118.2114, grad_fn=<AddBackward0>) 100
tensor(138.4838, grad_fn=<AddBackward0>) 200
tensor(80.2681, grad_fn=<AddBackward0>) 300
tensor(528.6335, grad_fn=<AddBackward0>) 400
tensor(115.1947, grad_fn=<AddBackward0>) 500
tensor(80.1095, grad_fn=<AddBackward0>) 600
tensor(97.8493, grad_fn=<AddBackward0>) 700
tensor(108.6723, grad_fn=<AddBackward0>) 800
…
tensor(90.1816, grad_fn=<AddBackward0>) 99500
tensor(123.0156, grad_fn=<AddBackward0>) 99600
tensor(75.3919, grad_fn=<AddBackward0>) 99700
tensor(197.9627, grad_fn=<AddBackward0>) 99800
tensor(108.0197, grad_fn=<AddBackward0>) 99900
tensor(72.4516, grad_fn=<AddBackward0>) 100000
/work/bjzhang_umass_edu/generative_tmula/preconditioned_generative_modeling/ffjord-sgm/lib/layers/odefunc.py:288: UserWarning: To copy construct from a tensor, it is recommended to use sourceTensor.clone().detach() or sourceTensor.clone().detach().requires_grad_(True), rather than torch.tensor(sourceTensor).
  t = torch.tensor(t).type_as(y)
Sequential(
  (0): Linear(in_features=3, out_features=32, bias=True)
  (1): GELU(approximate='none')
  (2): Linear(in_features=32, out_features=32, bias=True)
  (3): GELU(approximate='none')
  (4): Linear(in_features=32, out_features=32, bias=True)
  (5): GELU(approximate='none')
  (6): Linear(in_features=32, out_features=32, bias=True)
  (7): GELU(approximate='none')
  (8): Linear(in_features=32, out_features=32, bias=True)
  (9): GELU(approximate='none')
  (10): Linear(in_features=32, out_features=32, bias=True)
  (11): GELU(approximate='none')
  (12): Linear(in_features=32, out_features=32, bias=True)
  (13): GELU(approximate='none')
  (14): Linear(in_features=32, out_features=2, bias=True)
)
tensor(252.0955, grad_fn=<AddBackward0>) 0
tensor(238.3985, grad_fn=<AddBackward0>) 100
tensor(150.8709, grad_fn=<AddBackward0>) 200
tensor(189.1900, grad_fn=<AddBackward0>) 300
tensor(103.1037, grad_fn=<AddBackward0>) 400
tensor(64.7013, grad_fn=<AddBackward0>) 500
tensor(90.3280, grad_fn=<AddBackward0>) 600
tensor(146.2828, grad_fn=<AddBackward0>) 700
…
tensor(142.2377, grad_fn=<AddBackward0>) 99500
tensor(90.0167, grad_fn=<AddBackward0>) 99600
tensor(111.7929, grad_fn=<AddBackward0>) 99700
tensor(76.0749, grad_fn=<AddBackward0>) 99800
tensor(132.6925, grad_fn=<AddBackward0>) 99900
tensor(90.0765, grad_fn=<AddBackward0>) 100000
/work/bjzhang_umass_edu/generative_tmula/preconditioned_generative_modeling/ffjord-sgm/lib/layers/odefunc.py:288: UserWarning: To copy construct from a tensor, it is recommended to use sourceTensor.clone().detach() or sourceTensor.clone().detach().requires_grad_(True), rather than torch.tensor(sourceTensor).
  t = torch.tensor(t).type_as(y)
Sequential(
  (0): Linear(in_features=33, out_features=32, bias=True)
  (1): GELU(approximate='none')
  (2): Linear(in_features=32, out_features=32, bias=True)
  (3): GELU(approximate='none')
  (4): Linear(in_features=32, out_features=32, bias=True)
  (5): GELU(approximate='none')
  (6): Linear(in_features=32, out_features=32, bias=True)
  (7): GELU(approximate='none')
  (8): Linear(in_features=32, out_features=2, bias=True)
)
tensor(78.9032, grad_fn=<AddBackward0>) 0
tensor(66.3672, grad_fn=<AddBackward0>) 100
tensor(136.0709, grad_fn=<AddBackward0>) 200
tensor(208.4558, grad_fn=<AddBackward0>) 300
tensor(142.4271, grad_fn=<AddBackward0>) 400
tensor(112.3977, grad_fn=<AddBackward0>) 500
tensor(110.4520, grad_fn=<AddBackward0>) 600
tensor(127.3791, grad_fn=<AddBackward0>) 700
…
tensor(89.5324, grad_fn=<AddBackward0>) 99500
tensor(155.6379, grad_fn=<AddBackward0>) 99600
tensor(138.5024, grad_fn=<AddBackward0>) 99700
tensor(144.4474, grad_fn=<AddBackward0>) 99800
tensor(158.7243, grad_fn=<AddBackward0>) 99900
tensor(77.4590, grad_fn=<AddBackward0>) 100000
/work/bjzhang_umass_edu/generative_tmula/preconditioned_generative_modeling/ffjord-sgm/lib/layers/odefunc.py:288: UserWarning: To copy construct from a tensor, it is recommended to use sourceTensor.clone().detach() or sourceTensor.clone().detach().requires_grad_(True), rather than torch.tensor(sourceTensor).
  t = torch.tensor(t).type_as(y)
Sequential(
  (0): Linear(in_features=33, out_features=32, bias=True)
  (1): GELU(approximate='none')
  (2): Linear(in_features=32, out_features=32, bias=True)
  (3): GELU(approximate='none')
  (4): Linear(in_features=32, out_features=32, bias=True)
  (5): GELU(approximate='none')
  (6): Linear(in_features=32, out_features=32, bias=True)
  (7): GELU(approximate='none')
  (8): Linear(in_features=32, out_features=32, bias=True)
  (9): GELU(approximate='none')
  (10): Linear(in_features=32, out_features=32, bias=True)
  (11): GELU(approximate='none')
  (12): Linear(in_features=32, out_features=2, bias=True)
)
tensor(97.2352, grad_fn=<AddBackward0>) 0
tensor(239.7645, grad_fn=<AddBackward0>) 100
tensor(93.1216, grad_fn=<AddBackward0>) 200
tensor(76.5809, grad_fn=<AddBackward0>) 300
tensor(96.1443, grad_fn=<AddBackward0>) 400
tensor(243.0850, grad_fn=<AddBackward0>) 500
tensor(97.4466, grad_fn=<AddBackward0>) 600
tensor(115.4330, grad_fn=<AddBackward0>) 700
tensor(195.3625, grad_fn=<AddBackward0>) 800
…
