…
tensor(182.8708, grad_fn=<AddBackward0>) 99500
tensor(126.9798, grad_fn=<AddBackward0>) 99600
tensor(65.8150, grad_fn=<AddBackward0>) 99700
tensor(251.2674, grad_fn=<AddBackward0>) 99800
tensor(165.2739, grad_fn=<AddBackward0>) 99900
tensor(117.0189, grad_fn=<AddBackward0>) 100000
/work/bjzhang_umass_edu/generative_tmula/preconditioned_generative_modeling/ffjord-sgm/lib/layers/odefunc.py:288: UserWarning: To copy construct from a tensor, it is recommended to use sourceTensor.clone().detach() or sourceTensor.clone().detach().requires_grad_(True), rather than torch.tensor(sourceTensor).
  t = torch.tensor(t).type_as(y)
Sequential(
  (0): Linear(in_features=3, out_features=32, bias=True)
  (1): GELU(approximate='none')
  (2): Linear(in_features=32, out_features=32, bias=True)
  (3): GELU(approximate='none')
  (4): Linear(in_features=32, out_features=32, bias=True)
  (5): GELU(approximate='none')
  (6): Linear(in_features=32, out_features=32, bias=True)
  (7): GELU(approximate='none')
  (8): Linear(in_features=32, out_features=32, bias=True)
  (9): GELU(approximate='none')
  (10): Linear(in_features=32, out_features=2, bias=True)
)
tensor(297.9542, grad_fn=<AddBackward0>) 0
tensor(125.9999, grad_fn=<AddBackward0>) 100
tensor(89.6706, grad_fn=<AddBackward0>) 200
tensor(107.3408, grad_fn=<AddBackward0>) 300
tensor(92.1224, grad_fn=<AddBackward0>) 400
tensor(151.8663, grad_fn=<AddBackward0>) 500
tensor(139.4751, grad_fn=<AddBackward0>) 600
tensor(194.7679, grad_fn=<AddBackward0>) 700
…
tensor(66.4199, grad_fn=<AddBackward0>) 99500
tensor(112.0176, grad_fn=<AddBackward0>) 99600
tensor(89.0480, grad_fn=<AddBackward0>) 99700
tensor(102.7524, grad_fn=<AddBackward0>) 99800
tensor(109.4198, grad_fn=<AddBackward0>) 99900
tensor(97.4332, grad_fn=<AddBackward0>) 100000
/work/bjzhang_umass_edu/generative_tmula/preconditioned_generative_modeling/ffjord-sgm/lib/layers/odefunc.py:288: UserWarning: To copy construct from a tensor, it is recommended to use sourceTensor.clone().detach() or sourceTensor.clone().detach().requires_grad_(True), rather than torch.tensor(sourceTensor).
  t = torch.tensor(t).type_as(y)
Sequential(
  (0): Linear(in_features=3, out_features=32, bias=True)
  (1): GELU(approximate='none')
  (2): Linear(in_features=32, out_features=32, bias=True)
  (3): GELU(approximate='none')
  (4): Linear(in_features=32, out_features=32, bias=True)
  (5): GELU(approximate='none')
  (6): Linear(in_features=32, out_features=32, bias=True)
  (7): GELU(approximate='none')
  (8): Linear(in_features=32, out_features=32, bias=True)
  (9): GELU(approximate='none')
  (10): Linear(in_features=32, out_features=32, bias=True)
  (11): GELU(approximate='none')
  (12): Linear(in_features=32, out_features=32, bias=True)
  (13): GELU(approximate='none')
  (14): Linear(in_features=32, out_features=2, bias=True)
)
tensor(107.5770, grad_fn=<AddBackward0>) 0
tensor(121.4324, grad_fn=<AddBackward0>) 100
tensor(137.3393, grad_fn=<AddBackward0>) 200
tensor(166.8423, grad_fn=<AddBackward0>) 300
tensor(113.5991, grad_fn=<AddBackward0>) 400
tensor(61.8458, grad_fn=<AddBackward0>) 500
tensor(91.4401, grad_fn=<AddBackward0>) 600
tensor(181.0520, grad_fn=<AddBackward0>) 700
…
tensor(159.0252, grad_fn=<AddBackward0>) 99500
tensor(231.9766, grad_fn=<AddBackward0>) 99600
tensor(202.9886, grad_fn=<AddBackward0>) 99700
tensor(151.6525, grad_fn=<AddBackward0>) 99800
tensor(140.1472, grad_fn=<AddBackward0>) 99900
tensor(156.3215, grad_fn=<AddBackward0>) 100000
/work/bjzhang_umass_edu/generative_tmula/preconditioned_generative_modeling/ffjord-sgm/lib/layers/odefunc.py:288: UserWarning: To copy construct from a tensor, it is recommended to use sourceTensor.clone().detach() or sourceTensor.clone().detach().requires_grad_(True), rather than torch.tensor(sourceTensor).
  t = torch.tensor(t).type_as(y)
Sequential(
  (0): Linear(in_features=33, out_features=32, bias=True)
  (1): GELU(approximate='none')
  (2): Linear(in_features=32, out_features=32, bias=True)
  (3): GELU(approximate='none')
  (4): Linear(in_features=32, out_features=32, bias=True)
  (5): GELU(approximate='none')
  (6): Linear(in_features=32, out_features=32, bias=True)
  (7): GELU(approximate='none')
  (8): Linear(in_features=32, out_features=2, bias=True)
)
tensor(108.7613, grad_fn=<AddBackward0>) 0
tensor(90.3780, grad_fn=<AddBackward0>) 100
tensor(89.4810, grad_fn=<AddBackward0>) 200
tensor(150.3944, grad_fn=<AddBackward0>) 300
tensor(99.9824, grad_fn=<AddBackward0>) 400
tensor(116.7545, grad_fn=<AddBackward0>) 500
tensor(92.3171, grad_fn=<AddBackward0>) 600
tensor(82.7732, grad_fn=<AddBackward0>) 700
tensor(86.6862, grad_fn=<AddBackward0>) 800
…
tensor(153.9760, grad_fn=<AddBackward0>) 99500
tensor(140.7962, grad_fn=<AddBackward0>) 99600
tensor(158.5818, grad_fn=<AddBackward0>) 99700
tensor(109.8656, grad_fn=<AddBackward0>) 99800
tensor(172.0436, grad_fn=<AddBackward0>) 99900
tensor(81.9106, grad_fn=<AddBackward0>) 100000
/work/bjzhang_umass_edu/generative_tmula/preconditioned_generative_modeling/ffjord-sgm/lib/layers/odefunc.py:288: UserWarning: To copy construct from a tensor, it is recommended to use sourceTensor.clone().detach() or sourceTensor.clone().detach().requires_grad_(True), rather than torch.tensor(sourceTensor).
  t = torch.tensor(t).type_as(y)
Sequential(
  (0): Linear(in_features=33, out_features=32, bias=True)
  (1): GELU(approximate='none')
  (2): Linear(in_features=32, out_features=32, bias=True)
  (3): GELU(approximate='none')
  (4): Linear(in_features=32, out_features=32, bias=True)
  (5): GELU(approximate='none')
  (6): Linear(in_features=32, out_features=32, bias=True)
  (7): GELU(approximate='none')
  (8): Linear(in_features=32, out_features=32, bias=True)
  (9): GELU(approximate='none')
  (10): Linear(in_features=32, out_features=32, bias=True)
  (11): GELU(approximate='none')
  (12): Linear(in_features=32, out_features=2, bias=True)
)
tensor(153.7871, grad_fn=<AddBackward0>) 0
tensor(240.2835, grad_fn=<AddBackward0>) 100
tensor(149.4832, grad_fn=<AddBackward0>) 200
tensor(95.1498, grad_fn=<AddBackward0>) 300
tensor(160.3425, grad_fn=<AddBackward0>) 400
tensor(234.4619, grad_fn=<AddBackward0>) 500
tensor(152.2181, grad_fn=<AddBackward0>) 600
tensor(98.3476, grad_fn=<AddBackward0>) 700
…
