…
tensor(106.6525, grad_fn=<AddBackward0>) 99500
tensor(134.1062, grad_fn=<AddBackward0>) 99600
tensor(326.6674, grad_fn=<AddBackward0>) 99700
tensor(97.2488, grad_fn=<AddBackward0>) 99800
tensor(100.9563, grad_fn=<AddBackward0>) 99900
tensor(144.4905, grad_fn=<AddBackward0>) 100000
/work/bjzhang_umass_edu/generative_tmula/preconditioned_generative_modeling/ffjord-sgm/lib/layers/odefunc.py:288: UserWarning: To copy construct from a tensor, it is recommended to use sourceTensor.clone().detach() or sourceTensor.clone().detach().requires_grad_(True), rather than torch.tensor(sourceTensor).
  t = torch.tensor(t).type_as(y)
Sequential(
  (0): Linear(in_features=3, out_features=32, bias=True)
  (1): GELU(approximate='none')
  (2): Linear(in_features=32, out_features=32, bias=True)
  (3): GELU(approximate='none')
  (4): Linear(in_features=32, out_features=32, bias=True)
  (5): GELU(approximate='none')
  (6): Linear(in_features=32, out_features=32, bias=True)
  (7): GELU(approximate='none')
  (8): Linear(in_features=32, out_features=32, bias=True)
  (9): GELU(approximate='none')
  (10): Linear(in_features=32, out_features=2, bias=True)
)
tensor(237.1197, grad_fn=<AddBackward0>) 0
tensor(168.3353, grad_fn=<AddBackward0>) 100
tensor(186.1316, grad_fn=<AddBackward0>) 200
tensor(139.9312, grad_fn=<AddBackward0>) 300
tensor(111.7363, grad_fn=<AddBackward0>) 400
tensor(133.1431, grad_fn=<AddBackward0>) 500
tensor(101.5537, grad_fn=<AddBackward0>) 600
tensor(113.4250, grad_fn=<AddBackward0>) 700
…
tensor(121.5023, grad_fn=<AddBackward0>) 99500
tensor(100.3404, grad_fn=<AddBackward0>) 99600
tensor(135.6279, grad_fn=<AddBackward0>) 99700
tensor(131.8544, grad_fn=<AddBackward0>) 99800
tensor(89.6332, grad_fn=<AddBackward0>) 99900
tensor(84.4650, grad_fn=<AddBackward0>) 100000
/work/bjzhang_umass_edu/generative_tmula/preconditioned_generative_modeling/ffjord-sgm/lib/layers/odefunc.py:288: UserWarning: To copy construct from a tensor, it is recommended to use sourceTensor.clone().detach() or sourceTensor.clone().detach().requires_grad_(True), rather than torch.tensor(sourceTensor).
  t = torch.tensor(t).type_as(y)
Sequential(
  (0): Linear(in_features=3, out_features=32, bias=True)
  (1): GELU(approximate='none')
  (2): Linear(in_features=32, out_features=32, bias=True)
  (3): GELU(approximate='none')
  (4): Linear(in_features=32, out_features=32, bias=True)
  (5): GELU(approximate='none')
  (6): Linear(in_features=32, out_features=32, bias=True)
  (7): GELU(approximate='none')
  (8): Linear(in_features=32, out_features=32, bias=True)
  (9): GELU(approximate='none')
  (10): Linear(in_features=32, out_features=32, bias=True)
  (11): GELU(approximate='none')
  (12): Linear(in_features=32, out_features=32, bias=True)
  (13): GELU(approximate='none')
  (14): Linear(in_features=32, out_features=2, bias=True)
)
tensor(127.4332, grad_fn=<AddBackward0>) 0
tensor(115.8311, grad_fn=<AddBackward0>) 100
tensor(155.4566, grad_fn=<AddBackward0>) 200
tensor(74.2178, grad_fn=<AddBackward0>) 300
tensor(157.7200, grad_fn=<AddBackward0>) 400
tensor(82.7822, grad_fn=<AddBackward0>) 500
tensor(135.3704, grad_fn=<AddBackward0>) 600
tensor(134.4729, grad_fn=<AddBackward0>) 700
…
tensor(112.5387, grad_fn=<AddBackward0>) 99500
tensor(107.5409, grad_fn=<AddBackward0>) 99600
tensor(312.8893, grad_fn=<AddBackward0>) 99700
tensor(153.7267, grad_fn=<AddBackward0>) 99800
tensor(107.8851, grad_fn=<AddBackward0>) 99900
tensor(171.1483, grad_fn=<AddBackward0>) 100000
/work/bjzhang_umass_edu/generative_tmula/preconditioned_generative_modeling/ffjord-sgm/lib/layers/odefunc.py:288: UserWarning: To copy construct from a tensor, it is recommended to use sourceTensor.clone().detach() or sourceTensor.clone().detach().requires_grad_(True), rather than torch.tensor(sourceTensor).
  t = torch.tensor(t).type_as(y)
Sequential(
  (0): Linear(in_features=33, out_features=32, bias=True)
  (1): GELU(approximate='none')
  (2): Linear(in_features=32, out_features=32, bias=True)
  (3): GELU(approximate='none')
  (4): Linear(in_features=32, out_features=32, bias=True)
  (5): GELU(approximate='none')
  (6): Linear(in_features=32, out_features=32, bias=True)
  (7): GELU(approximate='none')
  (8): Linear(in_features=32, out_features=2, bias=True)
)
tensor(84.2892, grad_fn=<AddBackward0>) 0
tensor(91.5159, grad_fn=<AddBackward0>) 100
tensor(91.5534, grad_fn=<AddBackward0>) 200
tensor(102.2549, grad_fn=<AddBackward0>) 300
tensor(102.3774, grad_fn=<AddBackward0>) 400
tensor(104.3415, grad_fn=<AddBackward0>) 500
tensor(100.7176, grad_fn=<AddBackward0>) 600
tensor(92.2324, grad_fn=<AddBackward0>) 700
tensor(123.5820, grad_fn=<AddBackward0>) 800
…
tensor(109.4475, grad_fn=<AddBackward0>) 99500
tensor(117.0575, grad_fn=<AddBackward0>) 99600
tensor(120.0471, grad_fn=<AddBackward0>) 99700
tensor(156.2070, grad_fn=<AddBackward0>) 99800
tensor(93.6285, grad_fn=<AddBackward0>) 99900
tensor(158.1167, grad_fn=<AddBackward0>) 100000
/work/bjzhang_umass_edu/generative_tmula/preconditioned_generative_modeling/ffjord-sgm/lib/layers/odefunc.py:288: UserWarning: To copy construct from a tensor, it is recommended to use sourceTensor.clone().detach() or sourceTensor.clone().detach().requires_grad_(True), rather than torch.tensor(sourceTensor).
  t = torch.tensor(t).type_as(y)
Sequential(
  (0): Linear(in_features=33, out_features=32, bias=True)
  (1): GELU(approximate='none')
  (2): Linear(in_features=32, out_features=32, bias=True)
  (3): GELU(approximate='none')
  (4): Linear(in_features=32, out_features=32, bias=True)
  (5): GELU(approximate='none')
  (6): Linear(in_features=32, out_features=32, bias=True)
  (7): GELU(approximate='none')
  (8): Linear(in_features=32, out_features=32, bias=True)
  (9): GELU(approximate='none')
  (10): Linear(in_features=32, out_features=32, bias=True)
  (11): GELU(approximate='none')
  (12): Linear(in_features=32, out_features=2, bias=True)
)
tensor(124.3484, grad_fn=<AddBackward0>) 0
tensor(86.6429, grad_fn=<AddBackward0>) 100
tensor(112.6342, grad_fn=<AddBackward0>) 200
tensor(181.6938, grad_fn=<AddBackward0>) 300
tensor(130.4221, grad_fn=<AddBackward0>) 400
tensor(137.1933, grad_fn=<AddBackward0>) 500
tensor(90.5615, grad_fn=<AddBackward0>) 600
tensor(179.2226, grad_fn=<AddBackward0>) 700
…
