…
tensor(437.1650, grad_fn=<AddBackward0>) 99500
tensor(526.7029, grad_fn=<AddBackward0>) 99600
tensor(453.9405, grad_fn=<AddBackward0>) 99700
tensor(457.3464, grad_fn=<AddBackward0>) 99800
tensor(471.3941, grad_fn=<AddBackward0>) 99900
tensor(927.4711, grad_fn=<AddBackward0>) 100000
/work/bjzhang_umass_edu/generative_tmula/preconditioned_generative_modeling/ffjord-sgm/lib/layers/odefunc.py:288: UserWarning: To copy construct from a tensor, it is recommended to use sourceTensor.clone().detach() or sourceTensor.clone().detach().requires_grad_(True), rather than torch.tensor(sourceTensor).
  t = torch.tensor(t).type_as(y)
Sequential(
  (0): Linear(in_features=3, out_features=32, bias=True)
  (1): GELU(approximate='none')
  (2): Linear(in_features=32, out_features=32, bias=True)
  (3): GELU(approximate='none')
  (4): Linear(in_features=32, out_features=32, bias=True)
  (5): GELU(approximate='none')
  (6): Linear(in_features=32, out_features=32, bias=True)
  (7): GELU(approximate='none')
  (8): Linear(in_features=32, out_features=32, bias=True)
  (9): GELU(approximate='none')
  (10): Linear(in_features=32, out_features=2, bias=True)
)
tensor(995.8464, grad_fn=<AddBackward0>) 0
tensor(501.3456, grad_fn=<AddBackward0>) 100
tensor(594.2191, grad_fn=<AddBackward0>) 200
tensor(1837.6375, grad_fn=<AddBackward0>) 300
tensor(614.2942, grad_fn=<AddBackward0>) 400
tensor(547.1179, grad_fn=<AddBackward0>) 500
tensor(627.5561, grad_fn=<AddBackward0>) 600
tensor(369.2549, grad_fn=<AddBackward0>) 700
…
tensor(442.5360, grad_fn=<AddBackward0>) 99500
tensor(464.5574, grad_fn=<AddBackward0>) 99600
tensor(554.7684, grad_fn=<AddBackward0>) 99700
tensor(627.0655, grad_fn=<AddBackward0>) 99800
tensor(550.0604, grad_fn=<AddBackward0>) 99900
tensor(439.7970, grad_fn=<AddBackward0>) 100000
/work/bjzhang_umass_edu/generative_tmula/preconditioned_generative_modeling/ffjord-sgm/lib/layers/odefunc.py:288: UserWarning: To copy construct from a tensor, it is recommended to use sourceTensor.clone().detach() or sourceTensor.clone().detach().requires_grad_(True), rather than torch.tensor(sourceTensor).
  t = torch.tensor(t).type_as(y)
Sequential(
  (0): Linear(in_features=3, out_features=32, bias=True)
  (1): GELU(approximate='none')
  (2): Linear(in_features=32, out_features=32, bias=True)
  (3): GELU(approximate='none')
  (4): Linear(in_features=32, out_features=32, bias=True)
  (5): GELU(approximate='none')
  (6): Linear(in_features=32, out_features=32, bias=True)
  (7): GELU(approximate='none')
  (8): Linear(in_features=32, out_features=32, bias=True)
  (9): GELU(approximate='none')
  (10): Linear(in_features=32, out_features=32, bias=True)
  (11): GELU(approximate='none')
  (12): Linear(in_features=32, out_features=32, bias=True)
  (13): GELU(approximate='none')
  (14): Linear(in_features=32, out_features=2, bias=True)
)
tensor(637.7870, grad_fn=<AddBackward0>) 0
tensor(602.2252, grad_fn=<AddBackward0>) 100
tensor(867.7578, grad_fn=<AddBackward0>) 200
tensor(453.3752, grad_fn=<AddBackward0>) 300
tensor(620.6461, grad_fn=<AddBackward0>) 400
tensor(406.3289, grad_fn=<AddBackward0>) 500
tensor(794.2141, grad_fn=<AddBackward0>) 600
tensor(810.5293, grad_fn=<AddBackward0>) 700
…
tensor(639.9324, grad_fn=<AddBackward0>) 99500
tensor(497.2540, grad_fn=<AddBackward0>) 99600
tensor(435.1157, grad_fn=<AddBackward0>) 99700
tensor(303.6203, grad_fn=<AddBackward0>) 99800
tensor(772.0178, grad_fn=<AddBackward0>) 99900
tensor(439.3529, grad_fn=<AddBackward0>) 100000
/work/bjzhang_umass_edu/generative_tmula/preconditioned_generative_modeling/ffjord-sgm/lib/layers/odefunc.py:288: UserWarning: To copy construct from a tensor, it is recommended to use sourceTensor.clone().detach() or sourceTensor.clone().detach().requires_grad_(True), rather than torch.tensor(sourceTensor).
  t = torch.tensor(t).type_as(y)
Sequential(
  (0): Linear(in_features=33, out_features=32, bias=True)
  (1): GELU(approximate='none')
  (2): Linear(in_features=32, out_features=32, bias=True)
  (3): GELU(approximate='none')
  (4): Linear(in_features=32, out_features=32, bias=True)
  (5): GELU(approximate='none')
  (6): Linear(in_features=32, out_features=32, bias=True)
  (7): GELU(approximate='none')
  (8): Linear(in_features=32, out_features=2, bias=True)
)
tensor(583.0692, grad_fn=<AddBackward0>) 0
tensor(571.9295, grad_fn=<AddBackward0>) 100
tensor(556.9351, grad_fn=<AddBackward0>) 200
tensor(565.4794, grad_fn=<AddBackward0>) 300
tensor(713.0050, grad_fn=<AddBackward0>) 400
tensor(357.4312, grad_fn=<AddBackward0>) 500
tensor(567.5365, grad_fn=<AddBackward0>) 600
tensor(893.0708, grad_fn=<AddBackward0>) 700
…
tensor(363.3259, grad_fn=<AddBackward0>) 99500
tensor(527.2972, grad_fn=<AddBackward0>) 99600
tensor(356.1517, grad_fn=<AddBackward0>) 99700
tensor(567.8005, grad_fn=<AddBackward0>) 99800
tensor(379.5860, grad_fn=<AddBackward0>) 99900
tensor(511.6771, grad_fn=<AddBackward0>) 100000
/work/bjzhang_umass_edu/generative_tmula/preconditioned_generative_modeling/ffjord-sgm/lib/layers/odefunc.py:288: UserWarning: To copy construct from a tensor, it is recommended to use sourceTensor.clone().detach() or sourceTensor.clone().detach().requires_grad_(True), rather than torch.tensor(sourceTensor).
  t = torch.tensor(t).type_as(y)
Sequential(
  (0): Linear(in_features=33, out_features=32, bias=True)
  (1): GELU(approximate='none')
  (2): Linear(in_features=32, out_features=32, bias=True)
  (3): GELU(approximate='none')
  (4): Linear(in_features=32, out_features=32, bias=True)
  (5): GELU(approximate='none')
  (6): Linear(in_features=32, out_features=32, bias=True)
  (7): GELU(approximate='none')
  (8): Linear(in_features=32, out_features=32, bias=True)
  (9): GELU(approximate='none')
  (10): Linear(in_features=32, out_features=32, bias=True)
  (11): GELU(approximate='none')
  (12): Linear(in_features=32, out_features=2, bias=True)
)
tensor(490.6834, grad_fn=<AddBackward0>) 0
tensor(472.0651, grad_fn=<AddBackward0>) 100
tensor(400.7450, grad_fn=<AddBackward0>) 200
tensor(1080.5194, grad_fn=<AddBackward0>) 300
tensor(540.8461, grad_fn=<AddBackward0>) 400
tensor(937.1411, grad_fn=<AddBackward0>) 500
tensor(425.1218, grad_fn=<AddBackward0>) 600
tensor(703.2524, grad_fn=<AddBackward0>) 700
…
