…
tensor(399.1374, grad_fn=<AddBackward0>) 99500
tensor(243.1759, grad_fn=<AddBackward0>) 99600
tensor(633.6141, grad_fn=<AddBackward0>) 99700
tensor(249.1872, grad_fn=<AddBackward0>) 99800
tensor(387.4090, grad_fn=<AddBackward0>) 99900
tensor(219.9129, grad_fn=<AddBackward0>) 100000
/work/bjzhang_umass_edu/generative_tmula/preconditioned_generative_modeling/ffjord-sgm/lib/layers/odefunc.py:288: UserWarning: To copy construct from a tensor, it is recommended to use sourceTensor.clone().detach() or sourceTensor.clone().detach().requires_grad_(True), rather than torch.tensor(sourceTensor).
  t = torch.tensor(t).type_as(y)
Sequential(
  (0): Linear(in_features=3, out_features=32, bias=True)
  (1): GELU(approximate='none')
  (2): Linear(in_features=32, out_features=32, bias=True)
  (3): GELU(approximate='none')
  (4): Linear(in_features=32, out_features=32, bias=True)
  (5): GELU(approximate='none')
  (6): Linear(in_features=32, out_features=32, bias=True)
  (7): GELU(approximate='none')
  (8): Linear(in_features=32, out_features=32, bias=True)
  (9): GELU(approximate='none')
  (10): Linear(in_features=32, out_features=2, bias=True)
)
tensor(473.4649, grad_fn=<AddBackward0>) 0
tensor(619.5215, grad_fn=<AddBackward0>) 100
tensor(352.7446, grad_fn=<AddBackward0>) 200
tensor(547.7025, grad_fn=<AddBackward0>) 300
tensor(389.1956, grad_fn=<AddBackward0>) 400
tensor(395.7202, grad_fn=<AddBackward0>) 500
tensor(286.1387, grad_fn=<AddBackward0>) 600
tensor(484.1324, grad_fn=<AddBackward0>) 700
…
tensor(380.1179, grad_fn=<AddBackward0>) 99500
tensor(371.1982, grad_fn=<AddBackward0>) 99600
tensor(430.0576, grad_fn=<AddBackward0>) 99700
tensor(281.6993, grad_fn=<AddBackward0>) 99800
tensor(383.9184, grad_fn=<AddBackward0>) 99900
tensor(301.8402, grad_fn=<AddBackward0>) 100000
/work/bjzhang_umass_edu/generative_tmula/preconditioned_generative_modeling/ffjord-sgm/lib/layers/odefunc.py:288: UserWarning: To copy construct from a tensor, it is recommended to use sourceTensor.clone().detach() or sourceTensor.clone().detach().requires_grad_(True), rather than torch.tensor(sourceTensor).
  t = torch.tensor(t).type_as(y)
Sequential(
  (0): Linear(in_features=3, out_features=32, bias=True)
  (1): GELU(approximate='none')
  (2): Linear(in_features=32, out_features=32, bias=True)
  (3): GELU(approximate='none')
  (4): Linear(in_features=32, out_features=32, bias=True)
  (5): GELU(approximate='none')
  (6): Linear(in_features=32, out_features=32, bias=True)
  (7): GELU(approximate='none')
  (8): Linear(in_features=32, out_features=32, bias=True)
  (9): GELU(approximate='none')
  (10): Linear(in_features=32, out_features=32, bias=True)
  (11): GELU(approximate='none')
  (12): Linear(in_features=32, out_features=32, bias=True)
  (13): GELU(approximate='none')
  (14): Linear(in_features=32, out_features=2, bias=True)
)
tensor(415.4707, grad_fn=<AddBackward0>) 0
tensor(280.5491, grad_fn=<AddBackward0>) 100
tensor(231.3538, grad_fn=<AddBackward0>) 200
tensor(295.1686, grad_fn=<AddBackward0>) 300
tensor(299.9498, grad_fn=<AddBackward0>) 400
tensor(394.3972, grad_fn=<AddBackward0>) 500
tensor(450.9655, grad_fn=<AddBackward0>) 600
tensor(777.2569, grad_fn=<AddBackward0>) 700
…
tensor(354.4942, grad_fn=<AddBackward0>) 99500
tensor(544.4391, grad_fn=<AddBackward0>) 99600
tensor(215.1490, grad_fn=<AddBackward0>) 99700
tensor(294.9171, grad_fn=<AddBackward0>) 99800
tensor(339.2392, grad_fn=<AddBackward0>) 99900
tensor(298.4386, grad_fn=<AddBackward0>) 100000
/work/bjzhang_umass_edu/generative_tmula/preconditioned_generative_modeling/ffjord-sgm/lib/layers/odefunc.py:288: UserWarning: To copy construct from a tensor, it is recommended to use sourceTensor.clone().detach() or sourceTensor.clone().detach().requires_grad_(True), rather than torch.tensor(sourceTensor).
  t = torch.tensor(t).type_as(y)
Sequential(
  (0): Linear(in_features=33, out_features=32, bias=True)
  (1): GELU(approximate='none')
  (2): Linear(in_features=32, out_features=32, bias=True)
  (3): GELU(approximate='none')
  (4): Linear(in_features=32, out_features=32, bias=True)
  (5): GELU(approximate='none')
  (6): Linear(in_features=32, out_features=32, bias=True)
  (7): GELU(approximate='none')
  (8): Linear(in_features=32, out_features=2, bias=True)
)
tensor(393.8615, grad_fn=<AddBackward0>) 0
tensor(250.2008, grad_fn=<AddBackward0>) 100
tensor(647.5273, grad_fn=<AddBackward0>) 200
tensor(606.5547, grad_fn=<AddBackward0>) 300
tensor(368.6418, grad_fn=<AddBackward0>) 400
tensor(383.1581, grad_fn=<AddBackward0>) 500
tensor(325.3824, grad_fn=<AddBackward0>) 600
tensor(263.3235, grad_fn=<AddBackward0>) 700
…
tensor(404.3067, grad_fn=<AddBackward0>) 99500
tensor(348.6320, grad_fn=<AddBackward0>) 99600
tensor(733.7881, grad_fn=<AddBackward0>) 99700
tensor(434.5052, grad_fn=<AddBackward0>) 99800
tensor(212.5257, grad_fn=<AddBackward0>) 99900
tensor(259.7038, grad_fn=<AddBackward0>) 100000
/work/bjzhang_umass_edu/generative_tmula/preconditioned_generative_modeling/ffjord-sgm/lib/layers/odefunc.py:288: UserWarning: To copy construct from a tensor, it is recommended to use sourceTensor.clone().detach() or sourceTensor.clone().detach().requires_grad_(True), rather than torch.tensor(sourceTensor).
  t = torch.tensor(t).type_as(y)
Sequential(
  (0): Linear(in_features=33, out_features=32, bias=True)
  (1): GELU(approximate='none')
  (2): Linear(in_features=32, out_features=32, bias=True)
  (3): GELU(approximate='none')
  (4): Linear(in_features=32, out_features=32, bias=True)
  (5): GELU(approximate='none')
  (6): Linear(in_features=32, out_features=32, bias=True)
  (7): GELU(approximate='none')
  (8): Linear(in_features=32, out_features=32, bias=True)
  (9): GELU(approximate='none')
  (10): Linear(in_features=32, out_features=32, bias=True)
  (11): GELU(approximate='none')
  (12): Linear(in_features=32, out_features=2, bias=True)
)
tensor(243.4921, grad_fn=<AddBackward0>) 0
tensor(249.9046, grad_fn=<AddBackward0>) 100
tensor(343.2044, grad_fn=<AddBackward0>) 200
tensor(297.9775, grad_fn=<AddBackward0>) 300
tensor(469.3341, grad_fn=<AddBackward0>) 400
tensor(366.3131, grad_fn=<AddBackward0>) 500
tensor(260.9985, grad_fn=<AddBackward0>) 600
tensor(504.6522, grad_fn=<AddBackward0>) 700
…
