…
tensor(1200.9777, grad_fn=<AddBackward0>) 99500
tensor(867.9601, grad_fn=<AddBackward0>) 99600
tensor(997.7394, grad_fn=<AddBackward0>) 99700
tensor(1064.3685, grad_fn=<AddBackward0>) 99800
tensor(1015.4505, grad_fn=<AddBackward0>) 99900
tensor(864.6532, grad_fn=<AddBackward0>) 100000
/work/bjzhang_umass_edu/generative_tmula/preconditioned_generative_modeling/ffjord-sgm/lib/layers/odefunc.py:288: UserWarning: To copy construct from a tensor, it is recommended to use sourceTensor.clone().detach() or sourceTensor.clone().detach().requires_grad_(True), rather than torch.tensor(sourceTensor).
  t = torch.tensor(t).type_as(y)
Sequential(
  (0): Linear(in_features=3, out_features=32, bias=True)
  (1): GELU(approximate='none')
  (2): Linear(in_features=32, out_features=32, bias=True)
  (3): GELU(approximate='none')
  (4): Linear(in_features=32, out_features=32, bias=True)
  (5): GELU(approximate='none')
  (6): Linear(in_features=32, out_features=32, bias=True)
  (7): GELU(approximate='none')
  (8): Linear(in_features=32, out_features=32, bias=True)
  (9): GELU(approximate='none')
  (10): Linear(in_features=32, out_features=2, bias=True)
)
tensor(918.9149, grad_fn=<AddBackward0>) 0
tensor(551.3559, grad_fn=<AddBackward0>) 100
tensor(1201.6443, grad_fn=<AddBackward0>) 200
tensor(822.2293, grad_fn=<AddBackward0>) 300
tensor(901.2671, grad_fn=<AddBackward0>) 400
tensor(1068.5995, grad_fn=<AddBackward0>) 500
tensor(745.8675, grad_fn=<AddBackward0>) 600
tensor(499.6207, grad_fn=<AddBackward0>) 700
…
tensor(1066.3103, grad_fn=<AddBackward0>) 99500
tensor(815.7577, grad_fn=<AddBackward0>) 99600
tensor(882.6414, grad_fn=<AddBackward0>) 99700
tensor(824.3975, grad_fn=<AddBackward0>) 99800
tensor(699.1082, grad_fn=<AddBackward0>) 99900
tensor(1002.4939, grad_fn=<AddBackward0>) 100000
/work/bjzhang_umass_edu/generative_tmula/preconditioned_generative_modeling/ffjord-sgm/lib/layers/odefunc.py:288: UserWarning: To copy construct from a tensor, it is recommended to use sourceTensor.clone().detach() or sourceTensor.clone().detach().requires_grad_(True), rather than torch.tensor(sourceTensor).
  t = torch.tensor(t).type_as(y)
Sequential(
  (0): Linear(in_features=3, out_features=32, bias=True)
  (1): GELU(approximate='none')
  (2): Linear(in_features=32, out_features=32, bias=True)
  (3): GELU(approximate='none')
  (4): Linear(in_features=32, out_features=32, bias=True)
  (5): GELU(approximate='none')
  (6): Linear(in_features=32, out_features=32, bias=True)
  (7): GELU(approximate='none')
  (8): Linear(in_features=32, out_features=32, bias=True)
  (9): GELU(approximate='none')
  (10): Linear(in_features=32, out_features=32, bias=True)
  (11): GELU(approximate='none')
  (12): Linear(in_features=32, out_features=32, bias=True)
  (13): GELU(approximate='none')
  (14): Linear(in_features=32, out_features=2, bias=True)
)
tensor(587.4036, grad_fn=<AddBackward0>) 0
tensor(946.6193, grad_fn=<AddBackward0>) 100
tensor(1245.3135, grad_fn=<AddBackward0>) 200
tensor(707.9233, grad_fn=<AddBackward0>) 300
tensor(728.8824, grad_fn=<AddBackward0>) 400
tensor(1195.9127, grad_fn=<AddBackward0>) 500
tensor(598.2772, grad_fn=<AddBackward0>) 600
tensor(939.5185, grad_fn=<AddBackward0>) 700
…
tensor(1260.2994, grad_fn=<AddBackward0>) 99500
tensor(1332.5060, grad_fn=<AddBackward0>) 99600
tensor(1083.9144, grad_fn=<AddBackward0>) 99700
tensor(905.2678, grad_fn=<AddBackward0>) 99800
tensor(1613.6201, grad_fn=<AddBackward0>) 99900
tensor(945.2198, grad_fn=<AddBackward0>) 100000
/work/bjzhang_umass_edu/generative_tmula/preconditioned_generative_modeling/ffjord-sgm/lib/layers/odefunc.py:288: UserWarning: To copy construct from a tensor, it is recommended to use sourceTensor.clone().detach() or sourceTensor.clone().detach().requires_grad_(True), rather than torch.tensor(sourceTensor).
  t = torch.tensor(t).type_as(y)
Sequential(
  (0): Linear(in_features=33, out_features=32, bias=True)
  (1): GELU(approximate='none')
  (2): Linear(in_features=32, out_features=32, bias=True)
  (3): GELU(approximate='none')
  (4): Linear(in_features=32, out_features=32, bias=True)
  (5): GELU(approximate='none')
  (6): Linear(in_features=32, out_features=32, bias=True)
  (7): GELU(approximate='none')
  (8): Linear(in_features=32, out_features=2, bias=True)
)
tensor(847.1538, grad_fn=<AddBackward0>) 0
tensor(664.6102, grad_fn=<AddBackward0>) 100
tensor(907.7629, grad_fn=<AddBackward0>) 200
tensor(703.0681, grad_fn=<AddBackward0>) 300
tensor(937.9445, grad_fn=<AddBackward0>) 400
tensor(1675.9132, grad_fn=<AddBackward0>) 500
tensor(700.3105, grad_fn=<AddBackward0>) 600
tensor(1114.7515, grad_fn=<AddBackward0>) 700
…
tensor(1042.7926, grad_fn=<AddBackward0>) 99500
tensor(867.8088, grad_fn=<AddBackward0>) 99600
tensor(1521.5319, grad_fn=<AddBackward0>) 99700
tensor(984.8300, grad_fn=<AddBackward0>) 99800
tensor(707.0768, grad_fn=<AddBackward0>) 99900
tensor(791.5490, grad_fn=<AddBackward0>) 100000
/work/bjzhang_umass_edu/generative_tmula/preconditioned_generative_modeling/ffjord-sgm/lib/layers/odefunc.py:288: UserWarning: To copy construct from a tensor, it is recommended to use sourceTensor.clone().detach() or sourceTensor.clone().detach().requires_grad_(True), rather than torch.tensor(sourceTensor).
  t = torch.tensor(t).type_as(y)
Sequential(
  (0): Linear(in_features=33, out_features=32, bias=True)
  (1): GELU(approximate='none')
  (2): Linear(in_features=32, out_features=32, bias=True)
  (3): GELU(approximate='none')
  (4): Linear(in_features=32, out_features=32, bias=True)
  (5): GELU(approximate='none')
  (6): Linear(in_features=32, out_features=32, bias=True)
  (7): GELU(approximate='none')
  (8): Linear(in_features=32, out_features=32, bias=True)
  (9): GELU(approximate='none')
  (10): Linear(in_features=32, out_features=32, bias=True)
  (11): GELU(approximate='none')
  (12): Linear(in_features=32, out_features=2, bias=True)
)
tensor(799.8602, grad_fn=<AddBackward0>) 0
tensor(885.1837, grad_fn=<AddBackward0>) 100
tensor(744.0540, grad_fn=<AddBackward0>) 200
tensor(902.2269, grad_fn=<AddBackward0>) 300
tensor(834.5000, grad_fn=<AddBackward0>) 400
tensor(477.4626, grad_fn=<AddBackward0>) 500
tensor(782.5975, grad_fn=<AddBackward0>) 600
tensor(520.9141, grad_fn=<AddBackward0>) 700
…
