…
tensor(995.3742, grad_fn=<AddBackward0>) 99500
tensor(877.1418, grad_fn=<AddBackward0>) 99600
tensor(1003.0048, grad_fn=<AddBackward0>) 99700
tensor(1379.9021, grad_fn=<AddBackward0>) 99800
tensor(761.2482, grad_fn=<AddBackward0>) 99900
tensor(616.4403, grad_fn=<AddBackward0>) 100000
/work/bjzhang_umass_edu/generative_tmula/preconditioned_generative_modeling/ffjord-sgm/lib/layers/odefunc.py:288: UserWarning: To copy construct from a tensor, it is recommended to use sourceTensor.clone().detach() or sourceTensor.clone().detach().requires_grad_(True), rather than torch.tensor(sourceTensor).
  t = torch.tensor(t).type_as(y)
Sequential(
  (0): Linear(in_features=3, out_features=32, bias=True)
  (1): GELU(approximate='none')
  (2): Linear(in_features=32, out_features=32, bias=True)
  (3): GELU(approximate='none')
  (4): Linear(in_features=32, out_features=32, bias=True)
  (5): GELU(approximate='none')
  (6): Linear(in_features=32, out_features=32, bias=True)
  (7): GELU(approximate='none')
  (8): Linear(in_features=32, out_features=32, bias=True)
  (9): GELU(approximate='none')
  (10): Linear(in_features=32, out_features=2, bias=True)
)
tensor(665.8647, grad_fn=<AddBackward0>) 0
tensor(458.7347, grad_fn=<AddBackward0>) 100
tensor(827.1583, grad_fn=<AddBackward0>) 200
tensor(804.4865, grad_fn=<AddBackward0>) 300
tensor(716.3433, grad_fn=<AddBackward0>) 400
tensor(1033.5927, grad_fn=<AddBackward0>) 500
tensor(474.3685, grad_fn=<AddBackward0>) 600
tensor(519.4709, grad_fn=<AddBackward0>) 700
…
tensor(846.9531, grad_fn=<AddBackward0>) 99500
tensor(733.4120, grad_fn=<AddBackward0>) 99600
tensor(748.7363, grad_fn=<AddBackward0>) 99700
tensor(1056.2219, grad_fn=<AddBackward0>) 99800
tensor(670.2285, grad_fn=<AddBackward0>) 99900
tensor(894.4345, grad_fn=<AddBackward0>) 100000
/work/bjzhang_umass_edu/generative_tmula/preconditioned_generative_modeling/ffjord-sgm/lib/layers/odefunc.py:288: UserWarning: To copy construct from a tensor, it is recommended to use sourceTensor.clone().detach() or sourceTensor.clone().detach().requires_grad_(True), rather than torch.tensor(sourceTensor).
  t = torch.tensor(t).type_as(y)
Sequential(
  (0): Linear(in_features=3, out_features=32, bias=True)
  (1): GELU(approximate='none')
  (2): Linear(in_features=32, out_features=32, bias=True)
  (3): GELU(approximate='none')
  (4): Linear(in_features=32, out_features=32, bias=True)
  (5): GELU(approximate='none')
  (6): Linear(in_features=32, out_features=32, bias=True)
  (7): GELU(approximate='none')
  (8): Linear(in_features=32, out_features=32, bias=True)
  (9): GELU(approximate='none')
  (10): Linear(in_features=32, out_features=32, bias=True)
  (11): GELU(approximate='none')
  (12): Linear(in_features=32, out_features=32, bias=True)
  (13): GELU(approximate='none')
  (14): Linear(in_features=32, out_features=2, bias=True)
)
tensor(679.7811, grad_fn=<AddBackward0>) 0
tensor(1093.0116, grad_fn=<AddBackward0>) 100
tensor(652.0559, grad_fn=<AddBackward0>) 200
tensor(1002.7527, grad_fn=<AddBackward0>) 300
tensor(859.2804, grad_fn=<AddBackward0>) 400
tensor(706.7834, grad_fn=<AddBackward0>) 500
tensor(1069.0033, grad_fn=<AddBackward0>) 600
tensor(963.6343, grad_fn=<AddBackward0>) 700
…
tensor(882.9847, grad_fn=<AddBackward0>) 99500
tensor(958.1052, grad_fn=<AddBackward0>) 99600
tensor(762.6991, grad_fn=<AddBackward0>) 99700
tensor(874.2316, grad_fn=<AddBackward0>) 99800
tensor(982.7543, grad_fn=<AddBackward0>) 99900
tensor(601.6023, grad_fn=<AddBackward0>) 100000
/work/bjzhang_umass_edu/generative_tmula/preconditioned_generative_modeling/ffjord-sgm/lib/layers/odefunc.py:288: UserWarning: To copy construct from a tensor, it is recommended to use sourceTensor.clone().detach() or sourceTensor.clone().detach().requires_grad_(True), rather than torch.tensor(sourceTensor).
  t = torch.tensor(t).type_as(y)
Sequential(
  (0): Linear(in_features=33, out_features=32, bias=True)
  (1): GELU(approximate='none')
  (2): Linear(in_features=32, out_features=32, bias=True)
  (3): GELU(approximate='none')
  (4): Linear(in_features=32, out_features=32, bias=True)
  (5): GELU(approximate='none')
  (6): Linear(in_features=32, out_features=32, bias=True)
  (7): GELU(approximate='none')
  (8): Linear(in_features=32, out_features=2, bias=True)
)
tensor(1419.5653, grad_fn=<AddBackward0>) 0
tensor(834.8492, grad_fn=<AddBackward0>) 100
tensor(607.0948, grad_fn=<AddBackward0>) 200
tensor(908.7668, grad_fn=<AddBackward0>) 300
tensor(813.9301, grad_fn=<AddBackward0>) 400
tensor(755.5963, grad_fn=<AddBackward0>) 500
tensor(758.6977, grad_fn=<AddBackward0>) 600
tensor(1034.6276, grad_fn=<AddBackward0>) 700
…
tensor(914.4932, grad_fn=<AddBackward0>) 99500
tensor(743.2039, grad_fn=<AddBackward0>) 99600
tensor(1320.3799, grad_fn=<AddBackward0>) 99700
tensor(793.3173, grad_fn=<AddBackward0>) 99800
tensor(671.9511, grad_fn=<AddBackward0>) 99900
tensor(1235.0667, grad_fn=<AddBackward0>) 100000
/work/bjzhang_umass_edu/generative_tmula/preconditioned_generative_modeling/ffjord-sgm/lib/layers/odefunc.py:288: UserWarning: To copy construct from a tensor, it is recommended to use sourceTensor.clone().detach() or sourceTensor.clone().detach().requires_grad_(True), rather than torch.tensor(sourceTensor).
  t = torch.tensor(t).type_as(y)
Sequential(
  (0): Linear(in_features=33, out_features=32, bias=True)
  (1): GELU(approximate='none')
  (2): Linear(in_features=32, out_features=32, bias=True)
  (3): GELU(approximate='none')
  (4): Linear(in_features=32, out_features=32, bias=True)
  (5): GELU(approximate='none')
  (6): Linear(in_features=32, out_features=32, bias=True)
  (7): GELU(approximate='none')
  (8): Linear(in_features=32, out_features=32, bias=True)
  (9): GELU(approximate='none')
  (10): Linear(in_features=32, out_features=32, bias=True)
  (11): GELU(approximate='none')
  (12): Linear(in_features=32, out_features=2, bias=True)
)
tensor(1398.8585, grad_fn=<AddBackward0>) 0
tensor(1031.9207, grad_fn=<AddBackward0>) 100
tensor(874.2073, grad_fn=<AddBackward0>) 200
tensor(550.9077, grad_fn=<AddBackward0>) 300
tensor(825.5756, grad_fn=<AddBackward0>) 400
tensor(733.9568, grad_fn=<AddBackward0>) 500
tensor(1138.2635, grad_fn=<AddBackward0>) 600
tensor(545.7748, grad_fn=<AddBackward0>) 700
…
