Loading miniconda version 22.11.1-1
Sequential(
  (0): Linear(in_features=3, out_features=32, bias=True)
  (1): GELU(approximate='none')
  (2): Linear(in_features=32, out_features=32, bias=True)
  (3): GELU(approximate='none')
  (4): Linear(in_features=32, out_features=32, bias=True)
  (5): GELU(approximate='none')
  (6): Linear(in_features=32, out_features=32, bias=True)
  (7): GELU(approximate='none')
  (8): Linear(in_features=32, out_features=32, bias=True)
  (9): GELU(approximate='none')
  (10): Linear(in_features=32, out_features=32, bias=True)
  (11): GELU(approximate='none')
  (12): Linear(in_features=32, out_features=32, bias=True)
  (13): GELU(approximate='none')
  (14): Linear(in_features=32, out_features=2, bias=True)
)
tensor(5.0159, grad_fn=<MeanBackward1>) 0
tensor(1.0674, grad_fn=<MeanBackward1>) 100
tensor(1.6772, grad_fn=<MeanBackward1>) 200
tensor(1.8279, grad_fn=<MeanBackward1>) 300
tensor(9.0790, grad_fn=<MeanBackward1>) 400
tensor(3.7957, grad_fn=<MeanBackward1>) 500
tensor(7.7485, grad_fn=<MeanBackward1>) 600
tensor(1.8744, grad_fn=<MeanBackward1>) 700
tensor(2.6003, grad_fn=<MeanBackward1>) 800
…
tensor(5.8777, grad_fn=<MeanBackward1>) 98800
tensor(4.2122, grad_fn=<MeanBackward1>) 98900
tensor(2.0876, grad_fn=<MeanBackward1>) 99000
tensor(2.5705, grad_fn=<MeanBackward1>) 99100
tensor(1.8208, grad_fn=<MeanBackward1>) 99200
tensor(2.8300, grad_fn=<MeanBackward1>) 99300
tensor(2.4847, grad_fn=<MeanBackward1>) 99400
tensor(1.5702, grad_fn=<MeanBackward1>) 99500
tensor(1.8447, grad_fn=<MeanBackward1>) 99600
tensor(2.5207, grad_fn=<MeanBackward1>) 99700
tensor(2.0854, grad_fn=<MeanBackward1>) 99800
tensor(3.4634, grad_fn=<MeanBackward1>) 99900
tensor(2.1775, grad_fn=<MeanBackward1>) 100000
Sequential(
  (0): Linear(in_features=3, out_features=32, bias=True)
  (1): GELU(approximate='none')
  (2): Linear(in_features=32, out_features=32, bias=True)
  (3): GELU(approximate='none')
  (4): Linear(in_features=32, out_features=32, bias=True)
  (5): GELU(approximate='none')
  (6): Linear(in_features=32, out_features=32, bias=True)
  (7): GELU(approximate='none')
  (8): Linear(in_features=32, out_features=32, bias=True)
  (9): GELU(approximate='none')
  (10): Linear(in_features=32, out_features=2, bias=True)
)
tensor(2.3961, grad_fn=<MeanBackward1>) 0
tensor(3.0901, grad_fn=<MeanBackward1>) 100
tensor(1.2929, grad_fn=<MeanBackward1>) 200
tensor(1.8626, grad_fn=<MeanBackward1>) 300
tensor(1.0376, grad_fn=<MeanBackward1>) 400
tensor(2.8895, grad_fn=<MeanBackward1>) 500
tensor(2.0281, grad_fn=<MeanBackward1>) 600
tensor(6.9070, grad_fn=<MeanBackward1>) 700
tensor(4.1393, grad_fn=<MeanBackward1>) 800
…
