Removing miniconda version 22.11.1-1
Loading miniconda version 22.11.1-1

CommandNotFoundError: Your shell has not been properly configured to use 'conda deactivate'.
To initialize your shell, run

    $ conda init <SHELL_NAME>

Currently supported shells are:
  - bash
  - fish
  - tcsh
  - xonsh
  - zsh
  - powershell

See 'conda init --help' for more information and options.

IMPORTANT: You may need to close and restart your shell after running 'conda init'.


Sequential(
  (0): Linear(in_features=3, out_features=32, bias=True)
  (1): GELU(approximate='none')
  (2): Linear(in_features=32, out_features=32, bias=True)
  (3): GELU(approximate='none')
  (4): Linear(in_features=32, out_features=32, bias=True)
  (5): GELU(approximate='none')
  (6): Linear(in_features=32, out_features=32, bias=True)
  (7): GELU(approximate='none')
  (8): Linear(in_features=32, out_features=32, bias=True)
  (9): GELU(approximate='none')
  (10): Linear(in_features=32, out_features=32, bias=True)
  (11): GELU(approximate='none')
  (12): Linear(in_features=32, out_features=32, bias=True)
  (13): GELU(approximate='none')
  (14): Linear(in_features=32, out_features=2, bias=True)
)
tensor(2.4340, grad_fn=<MeanBackward1>) 0
tensor(2.0191, grad_fn=<MeanBackward1>) 100
tensor(0.8586, grad_fn=<MeanBackward1>) 200
tensor(1.1368, grad_fn=<MeanBackward1>) 300
tensor(1.3111, grad_fn=<MeanBackward1>) 400
tensor(1.3851, grad_fn=<MeanBackward1>) 500
tensor(1.2182, grad_fn=<MeanBackward1>) 600
tensor(1.5538, grad_fn=<MeanBackward1>) 700
tensor(2.6876, grad_fn=<MeanBackward1>) 800
…
tensor(2.3012, grad_fn=<MeanBackward1>) 98800
tensor(3.3042, grad_fn=<MeanBackward1>) 98900
tensor(4.8963, grad_fn=<MeanBackward1>) 99000
tensor(1.9714, grad_fn=<MeanBackward1>) 99100
tensor(3.6824, grad_fn=<MeanBackward1>) 99200
tensor(2.8185, grad_fn=<MeanBackward1>) 99300
tensor(2.7519, grad_fn=<MeanBackward1>) 99400
tensor(3.0702, grad_fn=<MeanBackward1>) 99500
tensor(6.7911, grad_fn=<MeanBackward1>) 99600
tensor(2.8744, grad_fn=<MeanBackward1>) 99700
tensor(2.3213, grad_fn=<MeanBackward1>) 99800
tensor(1.8373, grad_fn=<MeanBackward1>) 99900
tensor(1.7943, grad_fn=<MeanBackward1>) 100000
Sequential(
  (0): Linear(in_features=3, out_features=32, bias=True)
  (1): GELU(approximate='none')
  (2): Linear(in_features=32, out_features=32, bias=True)
  (3): GELU(approximate='none')
  (4): Linear(in_features=32, out_features=32, bias=True)
  (5): GELU(approximate='none')
  (6): Linear(in_features=32, out_features=32, bias=True)
  (7): GELU(approximate='none')
  (8): Linear(in_features=32, out_features=32, bias=True)
  (9): GELU(approximate='none')
  (10): Linear(in_features=32, out_features=2, bias=True)
)
tensor(2.7814, grad_fn=<MeanBackward1>) 0
tensor(2.1819, grad_fn=<MeanBackward1>) 100
tensor(4.1872, grad_fn=<MeanBackward1>) 200
tensor(1.8936, grad_fn=<MeanBackward1>) 300
tensor(1.3653, grad_fn=<MeanBackward1>) 400
tensor(8.6287, grad_fn=<MeanBackward1>) 500
tensor(1.0154, grad_fn=<MeanBackward1>) 600
tensor(2.1612, grad_fn=<MeanBackward1>) 700
tensor(1.8899, grad_fn=<MeanBackward1>) 800
…
