Removing miniconda version 22.11.1-1
Loading miniconda version 22.11.1-1

CommandNotFoundError: Your shell has not been properly configured to use 'conda deactivate'.
To initialize your shell, run

    $ conda init <SHELL_NAME>

Currently supported shells are:
  - bash
  - fish
  - tcsh
  - xonsh
  - zsh
  - powershell

See 'conda init --help' for more information and options.

IMPORTANT: You may need to close and restart your shell after running 'conda init'.


Sequential(
  (0): Linear(in_features=3, out_features=32, bias=True)
  (1): GELU(approximate='none')
  (2): Linear(in_features=32, out_features=32, bias=True)
  (3): GELU(approximate='none')
  (4): Linear(in_features=32, out_features=32, bias=True)
  (5): GELU(approximate='none')
  (6): Linear(in_features=32, out_features=32, bias=True)
  (7): GELU(approximate='none')
  (8): Linear(in_features=32, out_features=32, bias=True)
  (9): GELU(approximate='none')
  (10): Linear(in_features=32, out_features=32, bias=True)
  (11): GELU(approximate='none')
  (12): Linear(in_features=32, out_features=32, bias=True)
  (13): GELU(approximate='none')
  (14): Linear(in_features=32, out_features=2, bias=True)
)
tensor(4.2336, grad_fn=<MeanBackward1>) 0
tensor(7.9066, grad_fn=<MeanBackward1>) 100
tensor(1.1616, grad_fn=<MeanBackward1>) 200
tensor(2.0388, grad_fn=<MeanBackward1>) 300
tensor(1.6939, grad_fn=<MeanBackward1>) 400
tensor(3.4375, grad_fn=<MeanBackward1>) 500
tensor(4.6760, grad_fn=<MeanBackward1>) 600
tensor(1.3505, grad_fn=<MeanBackward1>) 700
tensor(1.9747, grad_fn=<MeanBackward1>) 800
…
tensor(2.3894, grad_fn=<MeanBackward1>) 98800
tensor(1.5448, grad_fn=<MeanBackward1>) 98900
tensor(2.0799, grad_fn=<MeanBackward1>) 99000
tensor(2.6486, grad_fn=<MeanBackward1>) 99100
tensor(3.2601, grad_fn=<MeanBackward1>) 99200
tensor(1.5966, grad_fn=<MeanBackward1>) 99300
tensor(2.5401, grad_fn=<MeanBackward1>) 99400
tensor(2.3094, grad_fn=<MeanBackward1>) 99500
tensor(2.6424, grad_fn=<MeanBackward1>) 99600
tensor(1.7046, grad_fn=<MeanBackward1>) 99700
tensor(2.3989, grad_fn=<MeanBackward1>) 99800
tensor(3.0715, grad_fn=<MeanBackward1>) 99900
tensor(2.4393, grad_fn=<MeanBackward1>) 100000
Sequential(
  (0): Linear(in_features=3, out_features=32, bias=True)
  (1): GELU(approximate='none')
  (2): Linear(in_features=32, out_features=32, bias=True)
  (3): GELU(approximate='none')
  (4): Linear(in_features=32, out_features=32, bias=True)
  (5): GELU(approximate='none')
  (6): Linear(in_features=32, out_features=32, bias=True)
  (7): GELU(approximate='none')
  (8): Linear(in_features=32, out_features=32, bias=True)
  (9): GELU(approximate='none')
  (10): Linear(in_features=32, out_features=2, bias=True)
)
tensor(2.6396, grad_fn=<MeanBackward1>) 0
tensor(3.9702, grad_fn=<MeanBackward1>) 100
tensor(2.9230, grad_fn=<MeanBackward1>) 200
tensor(2.4588, grad_fn=<MeanBackward1>) 300
tensor(2.4506, grad_fn=<MeanBackward1>) 400
tensor(2.2312, grad_fn=<MeanBackward1>) 500
tensor(1.8279, grad_fn=<MeanBackward1>) 600
tensor(2.4665, grad_fn=<MeanBackward1>) 700
tensor(3.6330, grad_fn=<MeanBackward1>) 800
…
