Loading miniconda version 22.11.1-1
Sequential(
  (0): Linear(in_features=3, out_features=32, bias=True)
  (1): GELU(approximate='none')
  (2): Linear(in_features=32, out_features=32, bias=True)
  (3): GELU(approximate='none')
  (4): Linear(in_features=32, out_features=32, bias=True)
  (5): GELU(approximate='none')
  (6): Linear(in_features=32, out_features=32, bias=True)
  (7): GELU(approximate='none')
  (8): Linear(in_features=32, out_features=32, bias=True)
  (9): GELU(approximate='none')
  (10): Linear(in_features=32, out_features=32, bias=True)
  (11): GELU(approximate='none')
  (12): Linear(in_features=32, out_features=32, bias=True)
  (13): GELU(approximate='none')
  (14): Linear(in_features=32, out_features=2, bias=True)
)
tensor(2.0018, grad_fn=<MeanBackward1>) 0
tensor(2.8735, grad_fn=<MeanBackward1>) 100
tensor(3.0659, grad_fn=<MeanBackward1>) 200
tensor(8.8383, grad_fn=<MeanBackward1>) 300
tensor(1.6968, grad_fn=<MeanBackward1>) 400
tensor(6.7107, grad_fn=<MeanBackward1>) 500
tensor(0.8616, grad_fn=<MeanBackward1>) 600
tensor(2.4021, grad_fn=<MeanBackward1>) 700
tensor(1.3911, grad_fn=<MeanBackward1>) 800
…
tensor(3.9300, grad_fn=<MeanBackward1>) 98800
tensor(9.1001, grad_fn=<MeanBackward1>) 98900
tensor(7.8402, grad_fn=<MeanBackward1>) 99000
tensor(4.2103, grad_fn=<MeanBackward1>) 99100
tensor(5.3441, grad_fn=<MeanBackward1>) 99200
tensor(8.0919, grad_fn=<MeanBackward1>) 99300
tensor(6.3626, grad_fn=<MeanBackward1>) 99400
tensor(4.7211, grad_fn=<MeanBackward1>) 99500
tensor(5.7500, grad_fn=<MeanBackward1>) 99600
tensor(6.9122, grad_fn=<MeanBackward1>) 99700
tensor(5.1681, grad_fn=<MeanBackward1>) 99800
tensor(6.1188, grad_fn=<MeanBackward1>) 99900
tensor(8.3734, grad_fn=<MeanBackward1>) 100000
Sequential(
  (0): Linear(in_features=3, out_features=32, bias=True)
  (1): GELU(approximate='none')
  (2): Linear(in_features=32, out_features=32, bias=True)
  (3): GELU(approximate='none')
  (4): Linear(in_features=32, out_features=32, bias=True)
  (5): GELU(approximate='none')
  (6): Linear(in_features=32, out_features=32, bias=True)
  (7): GELU(approximate='none')
  (8): Linear(in_features=32, out_features=32, bias=True)
  (9): GELU(approximate='none')
  (10): Linear(in_features=32, out_features=2, bias=True)
)
tensor(3.0920, grad_fn=<MeanBackward1>) 0
tensor(4.6598, grad_fn=<MeanBackward1>) 100
tensor(2.0787, grad_fn=<MeanBackward1>) 200
tensor(1.9564, grad_fn=<MeanBackward1>) 300
tensor(1.5138, grad_fn=<MeanBackward1>) 400
tensor(5.2336, grad_fn=<MeanBackward1>) 500
tensor(1.2848, grad_fn=<MeanBackward1>) 600
tensor(0.8728, grad_fn=<MeanBackward1>) 700
tensor(2.2935, grad_fn=<MeanBackward1>) 800
…
