…
tensor(71.4056, grad_fn=<AddBackward0>) 99500
tensor(64.4538, grad_fn=<AddBackward0>) 99600
tensor(182.5055, grad_fn=<AddBackward0>) 99700
tensor(77.6455, grad_fn=<AddBackward0>) 99800
tensor(148.9880, grad_fn=<AddBackward0>) 99900
tensor(77.9689, grad_fn=<AddBackward0>) 100000
/work/bjzhang_umass_edu/generative_tmula/preconditioned_generative_modeling/ffjord-sgm/lib/layers/odefunc.py:288: UserWarning: To copy construct from a tensor, it is recommended to use sourceTensor.clone().detach() or sourceTensor.clone().detach().requires_grad_(True), rather than torch.tensor(sourceTensor).
  t = torch.tensor(t).type_as(y)
Sequential(
  (0): Linear(in_features=3, out_features=32, bias=True)
  (1): GELU(approximate='none')
  (2): Linear(in_features=32, out_features=32, bias=True)
  (3): GELU(approximate='none')
  (4): Linear(in_features=32, out_features=32, bias=True)
  (5): GELU(approximate='none')
  (6): Linear(in_features=32, out_features=32, bias=True)
  (7): GELU(approximate='none')
  (8): Linear(in_features=32, out_features=32, bias=True)
  (9): GELU(approximate='none')
  (10): Linear(in_features=32, out_features=2, bias=True)
)
tensor(105.1497, grad_fn=<AddBackward0>) 0
tensor(124.3850, grad_fn=<AddBackward0>) 100
tensor(98.2091, grad_fn=<AddBackward0>) 200
tensor(127.4545, grad_fn=<AddBackward0>) 300
tensor(105.1639, grad_fn=<AddBackward0>) 400
tensor(150.4761, grad_fn=<AddBackward0>) 500
tensor(75.9273, grad_fn=<AddBackward0>) 600
tensor(158.6364, grad_fn=<AddBackward0>) 700
…
tensor(106.4943, grad_fn=<AddBackward0>) 99500
tensor(104.3511, grad_fn=<AddBackward0>) 99600
tensor(89.6462, grad_fn=<AddBackward0>) 99700
tensor(205.3741, grad_fn=<AddBackward0>) 99800
tensor(82.3931, grad_fn=<AddBackward0>) 99900
tensor(102.3613, grad_fn=<AddBackward0>) 100000
/work/bjzhang_umass_edu/generative_tmula/preconditioned_generative_modeling/ffjord-sgm/lib/layers/odefunc.py:288: UserWarning: To copy construct from a tensor, it is recommended to use sourceTensor.clone().detach() or sourceTensor.clone().detach().requires_grad_(True), rather than torch.tensor(sourceTensor).
  t = torch.tensor(t).type_as(y)
Sequential(
  (0): Linear(in_features=3, out_features=32, bias=True)
  (1): GELU(approximate='none')
  (2): Linear(in_features=32, out_features=32, bias=True)
  (3): GELU(approximate='none')
  (4): Linear(in_features=32, out_features=32, bias=True)
  (5): GELU(approximate='none')
  (6): Linear(in_features=32, out_features=32, bias=True)
  (7): GELU(approximate='none')
  (8): Linear(in_features=32, out_features=32, bias=True)
  (9): GELU(approximate='none')
  (10): Linear(in_features=32, out_features=32, bias=True)
  (11): GELU(approximate='none')
  (12): Linear(in_features=32, out_features=32, bias=True)
  (13): GELU(approximate='none')
  (14): Linear(in_features=32, out_features=2, bias=True)
)
tensor(95.3428, grad_fn=<AddBackward0>) 0
tensor(119.6702, grad_fn=<AddBackward0>) 100
tensor(102.2711, grad_fn=<AddBackward0>) 200
tensor(174.4356, grad_fn=<AddBackward0>) 300
tensor(95.2517, grad_fn=<AddBackward0>) 400
tensor(128.1259, grad_fn=<AddBackward0>) 500
tensor(174.9248, grad_fn=<AddBackward0>) 600
tensor(91.8375, grad_fn=<AddBackward0>) 700
tensor(66.6627, grad_fn=<AddBackward0>) 800
…
tensor(436.0593, grad_fn=<AddBackward0>) 99500
tensor(60.2874, grad_fn=<AddBackward0>) 99600
tensor(267.0369, grad_fn=<AddBackward0>) 99700
tensor(68.1053, grad_fn=<AddBackward0>) 99800
tensor(81.7522, grad_fn=<AddBackward0>) 99900
tensor(127.2636, grad_fn=<AddBackward0>) 100000
/work/bjzhang_umass_edu/generative_tmula/preconditioned_generative_modeling/ffjord-sgm/lib/layers/odefunc.py:288: UserWarning: To copy construct from a tensor, it is recommended to use sourceTensor.clone().detach() or sourceTensor.clone().detach().requires_grad_(True), rather than torch.tensor(sourceTensor).
  t = torch.tensor(t).type_as(y)
Sequential(
  (0): Linear(in_features=33, out_features=32, bias=True)
  (1): GELU(approximate='none')
  (2): Linear(in_features=32, out_features=32, bias=True)
  (3): GELU(approximate='none')
  (4): Linear(in_features=32, out_features=32, bias=True)
  (5): GELU(approximate='none')
  (6): Linear(in_features=32, out_features=32, bias=True)
  (7): GELU(approximate='none')
  (8): Linear(in_features=32, out_features=2, bias=True)
)
tensor(109.8841, grad_fn=<AddBackward0>) 0
tensor(90.2149, grad_fn=<AddBackward0>) 100
tensor(97.5145, grad_fn=<AddBackward0>) 200
tensor(211.2893, grad_fn=<AddBackward0>) 300
tensor(104.0795, grad_fn=<AddBackward0>) 400
tensor(80.7456, grad_fn=<AddBackward0>) 500
tensor(67.2128, grad_fn=<AddBackward0>) 600
tensor(78.7438, grad_fn=<AddBackward0>) 700
tensor(86.3322, grad_fn=<AddBackward0>) 800
…
tensor(139.5563, grad_fn=<AddBackward0>) 99500
tensor(263.6850, grad_fn=<AddBackward0>) 99600
tensor(82.7275, grad_fn=<AddBackward0>) 99700
tensor(83.9917, grad_fn=<AddBackward0>) 99800
tensor(154.3562, grad_fn=<AddBackward0>) 99900
tensor(105.2678, grad_fn=<AddBackward0>) 100000
/work/bjzhang_umass_edu/generative_tmula/preconditioned_generative_modeling/ffjord-sgm/lib/layers/odefunc.py:288: UserWarning: To copy construct from a tensor, it is recommended to use sourceTensor.clone().detach() or sourceTensor.clone().detach().requires_grad_(True), rather than torch.tensor(sourceTensor).
  t = torch.tensor(t).type_as(y)
Sequential(
  (0): Linear(in_features=33, out_features=32, bias=True)
  (1): GELU(approximate='none')
  (2): Linear(in_features=32, out_features=32, bias=True)
  (3): GELU(approximate='none')
  (4): Linear(in_features=32, out_features=32, bias=True)
  (5): GELU(approximate='none')
  (6): Linear(in_features=32, out_features=32, bias=True)
  (7): GELU(approximate='none')
  (8): Linear(in_features=32, out_features=32, bias=True)
  (9): GELU(approximate='none')
  (10): Linear(in_features=32, out_features=32, bias=True)
  (11): GELU(approximate='none')
  (12): Linear(in_features=32, out_features=2, bias=True)
)
tensor(106.7253, grad_fn=<AddBackward0>) 0
tensor(97.6135, grad_fn=<AddBackward0>) 100
tensor(114.0091, grad_fn=<AddBackward0>) 200
tensor(91.9042, grad_fn=<AddBackward0>) 300
tensor(163.4282, grad_fn=<AddBackward0>) 400
tensor(135.5374, grad_fn=<AddBackward0>) 500
tensor(101.6475, grad_fn=<AddBackward0>) 600
tensor(80.3720, grad_fn=<AddBackward0>) 700
tensor(85.4868, grad_fn=<AddBackward0>) 800
…
