…
                plt.savefig(fig_filename)
                plt.close()
                model.train()

        end = time.time()

    logger.info('Training has finished.')

Namespace(data='8gaussians', depth=10, glow=True, nf=False, niters=100001, batch_size=100, test_batch_size=1000, lr=0.0001, weight_decay=0, l1int=None, l2int=None, dl2int=None, JFrobint=None, JdiagFrobint=None, JoffdiagFrobint=None, save='experiments/cnf', viz_freq=1000, val_freq=1000, log_freq=100, gpu=0)
SequentialFlow(
  (chain): ModuleList(
    (0): BruteForceLayer()
    (1): CouplingLayer(
      (net_s_t): Sequential(
        (0): Linear(in_features=1, out_features=64, bias=True)
        (1): ReLU(inplace=True)
        (2): Linear(in_features=64, out_features=64, bias=True)
        (3): ReLU(inplace=True)
        (4): Linear(in_features=64, out_features=2, bias=True)
      )
    )
    (2): BruteForceLayer()
    (3): CouplingLayer(
      (net_s_t): Sequential(
        (0): Linear(in_features=1, out_features=64, bias=True)
        (1): ReLU(inplace=True)
        (2): Linear(in_features=64, out_features=64, bias=True)
        (3): ReLU(inplace=True)
        (4): Linear(in_features=64, out_features=2, bias=True)
      )
    )
    (4): BruteForceLayer()
    (5): CouplingLayer(
      (net_s_t): Sequential(
        (0): Linear(in_features=1, out_features=64, bias=True)
        (1): ReLU(inplace=True)
        (2): Linear(in_features=64, out_features=64, bias=True)
        (3): ReLU(inplace=True)
        (4): Linear(in_features=64, out_features=2, bias=True)
      )
    )
    (6): BruteForceLayer()
    (7): CouplingLayer(
      (net_s_t): Sequential(
        (0): Linear(in_features=1, out_features=64, bias=True)
        (1): ReLU(inplace=True)
        (2): Linear(in_features=64, out_features=64, bias=True)
        (3): ReLU(inplace=True)
        (4): Linear(in_features=64, out_features=2, bias=True)
      )
    )
    (8): BruteForceLayer()
    (9): CouplingLayer(
      (net_s_t): Sequential(
        (0): Linear(in_features=1, out_features=64, bias=True)
        (1): ReLU(inplace=True)
        (2): Linear(in_features=64, out_features=64, bias=True)
        (3): ReLU(inplace=True)
        (4): Linear(in_features=64, out_features=2, bias=True)
      )
    )
    (10): BruteForceLayer()
    (11): CouplingLayer(
      (net_s_t): Sequential(
        (0): Linear(in_features=1, out_features=64, bias=True)
        (1): ReLU(inplace=True)
        (2): Linear(in_features=64, out_features=64, bias=True)
        (3): ReLU(inplace=True)
        (4): Linear(in_features=64, out_features=2, bias=True)
      )
    )
    (12): BruteForceLayer()
    (13): CouplingLayer(
      (net_s_t): Sequential(
        (0): Linear(in_features=1, out_features=64, bias=True)
        (1): ReLU(inplace=True)
        (2): Linear(in_features=64, out_features=64, bias=True)
        (3): ReLU(inplace=True)
        (4): Linear(in_features=64, out_features=2, bias=True)
      )
    )
    (14): BruteForceLayer()
    (15): CouplingLayer(
      (net_s_t): Sequential(
        (0): Linear(in_features=1, out_features=64, bias=True)
        (1): ReLU(inplace=True)
        (2): Linear(in_features=64, out_features=64, bias=True)
        (3): ReLU(inplace=True)
        (4): Linear(in_features=64, out_features=2, bias=True)
      )
    )
    (16): BruteForceLayer()
    (17): CouplingLayer(
      (net_s_t): Sequential(
        (0): Linear(in_features=1, out_features=64, bias=True)
        (1): ReLU(inplace=True)
        (2): Linear(in_features=64, out_features=64, bias=True)
        (3): ReLU(inplace=True)
        (4): Linear(in_features=64, out_features=2, bias=True)
      )
    )
    (18): BruteForceLayer()
    (19): CouplingLayer(
      (net_s_t): Sequential(
        (0): Linear(in_features=1, out_features=64, bias=True)
        (1): ReLU(inplace=True)
        (2): Linear(in_features=64, out_features=64, bias=True)
        (3): ReLU(inplace=True)
        (4): Linear(in_features=64, out_features=2, bias=True)
      )
    )
  )
)
Number of trainable parameters: 44220
Iter 0100 | Time 0.0145(0.0313) | Loss 4.252824(4.248180)
Iter 0200 | Time 0.0141(0.0178) | Loss 4.181940(4.200923)
Iter 0300 | Time 0.0157(0.0147) | Loss 4.160287(4.169384)
Iter 0400 | Time 0.0145(0.0145) | Loss 4.134821(4.140947)
Iter 0500 | Time 0.0157(0.0172) | Loss 4.100995(4.117517)
Iter 0600 | Time 0.0132(0.0177) | Loss 4.086251(4.088128)
…
Namespace(data='pinwheel', layer_type='concatsquash', dims='64-64-64', num_blocks=1, time_length=0.5, train_T=True, divergence_fn='brute_force', nonlinearity='tanh', solver='dopri5', atol=1e-05, rtol=1e-05, step_size=None, test_solver=None, test_atol=None, test_rtol=None, residual=False, rademacher=False, spectral_norm=False, batch_norm=False, bn_lag=0, niters=10000, batch_size=100, test_batch_size=1000, lr=0.001, weight_decay=1e-05, l1int=None, l2int=None, dl2int=None, JFrobint=None, JdiagFrobint=None, JoffdiagFrobint=None, save='experiments/cnf', viz_freq=100, val_freq=100, log_freq=10, gpu=0)
SequentialFlow(
  (chain): ModuleList(
    (0): CNF(
      (odefunc): RegularizedODEfunc(
        (odefunc): ODEfunc(
          (diffeq): ODEnet(
            (layers): ModuleList(
              (0): ConcatSquashLinear(
                (_layer): Linear(in_features=2, out_features=64, bias=True)
                (_hyper_bias): Linear(in_features=1, out_features=64, bias=False)
                (_hyper_gate): Linear(in_features=1, out_features=64, bias=True)
              )
              (1): ConcatSquashLinear(
                (_layer): Linear(in_features=64, out_features=64, bias=True)
                (_hyper_bias): Linear(in_features=1, out_features=64, bias=False)
                (_hyper_gate): Linear(in_features=1, out_features=64, bias=True)
              )
              (2): ConcatSquashLinear(
                (_layer): Linear(in_features=64, out_features=64, bias=True)
                (_hyper_bias): Linear(in_features=1, out_features=64, bias=False)
                (_hyper_gate): Linear(in_features=1, out_features=64, bias=True)
              )
              (3): ConcatSquashLinear(
                (_layer): Linear(in_features=64, out_features=2, bias=True)
                (_hyper_bias): Linear(in_features=1, out_features=2, bias=False)
                (_hyper_gate): Linear(in_features=1, out_features=2, bias=True)
              )
            )
            (activation_fns): ModuleList(
              (0): Tanh()
              (1): Tanh()
              (2): Tanh()
            )
          )
        )
      )
    )
  )
)
Number of trainable parameters: 9225
Iter 0001 | Time 0.2389(0.2389) | Loss 4.175737(4.175737) | NFE Forward 14(14.0) | NFE Backward 14(14.0) | CNF Time 0.5000(0.5000)
…
False, multiscale=True, parallel=False, l1int=None, l2int=None, dl2int=None, JFrobint=None, JdiagFrobint=None, JoffdiagFrobint=None, time_penalty=0, max_grad_norm=10000000000.0, begin_epoch=1, resume=None, save='experiments/cnf', val_freq=1, log_freq=10)
ODENVP(
  (transforms): ModuleList(
    (0): StackedCNFLayers(
      (chain): ModuleList(
        (0): LogitTransform()
        (1): CNF(
          (odefunc): RegularizedODEfunc(
            (odefunc): ODEfunc(
              (diffeq): ODEnet(
                (layers): ModuleList(
                  (0): ConcatConv2d(
                    (_layer): Conv2d(2, 64, kernel_size=(3, 3), stride=(1, 1), padding=(1, 1))
                  )
                  (1): ConcatConv2d(
                    (_layer): Conv2d(65, 64, kernel_size=(3, 3), stride=(1, 1), padding=(1, 1))
                  )
                  (2): ConcatConv2d(
                    (_layer): Conv2d(65, 64, kernel_size=(3, 3), stride=(1, 1), padding=(1, 1))
                  )
                  (3): ConcatConv2d(
                    (_layer): Conv2d(65, 1, kernel_size=(3, 3), stride=(1, 1), padding=(1, 1))
                  )
                )
                (activation_fns): ModuleList(
                  (0): Softplus(beta=1, threshold=20)
                  (1): Softplus(beta=1, threshold=20)
                  (2): Softplus(beta=1, threshold=20)
                )
              )
            )
          )
        )
        (2): CNF(
          (odefunc): RegularizedODEfunc(
            (odefunc): ODEfunc(
              (diffeq): ODEnet(
                (layers): ModuleList(
                  (0): ConcatConv2d(
                    (_layer): Conv2d(2, 64, kernel_size=(3, 3), stride=(1, 1), padding=(1, 1))
                  )
                  (1): ConcatConv2d(
                    (_layer): Conv2d(65, 64, kernel_size=(3, 3), stride=(1, 1), padding=(1, 1))
                  )
                  (2): ConcatConv2d(
                    (_layer): Conv2d(65, 64, kernel_size=(3, 3), stride=(1, 1), padding=(1, 1))
                  )
                  (3): ConcatConv2d(
                    (_layer): Conv2d(65, 1, kernel_size=(3, 3), stride=(1, 1), padding=(1, 1))
                  )
                )
                (activation_fns): ModuleList(
                  (0): Softplus(beta=1, threshold=20)
                  (1): Softplus(beta=1, threshold=20)
                  (2): Softplus(beta=1, threshold=20)
                )
              )
            )
          )
        )
        (3): SqueezeLayer()
        (4): CNF(
          (odefunc): RegularizedODEfunc(
            (odefunc): ODEfunc(
              (diffeq): ODEnet(
                (layers): ModuleList(
                  (0): ConcatConv2d(
                    (_layer): Conv2d(5, 64, kernel_size=(3, 3), stride=(1, 1), padding=(1, 1))
                  )
                  (1): ConcatConv2d(
                    (_layer): Conv2d(65, 64, kernel_size=(3, 3), stride=(1, 1), padding=(1, 1))
                  )
                  (2): ConcatConv2d(
                    (_layer): Conv2d(65, 64, kernel_size=(3, 3), stride=(1, 1), padding=(1, 1))
                  )
                  (3): ConcatConv2d(
                    (_layer): Conv2d(65, 4, kernel_size=(3, 3), stride=(1, 1), padding=(1, 1))
                  )
                )
                (activation_fns): ModuleList(
                  (0): Softplus(beta=1, threshold=20)
                  (1): Softplus(beta=1, threshold=20)
                  (2): Softplus(beta=1, threshold=20)
                )
              )
            )
          )
        )
        (5): CNF(
          (odefunc): RegularizedODEfunc(
            (odefunc): ODEfunc(
              (diffeq): ODEnet(
                (layers): ModuleList(
                  (0): ConcatConv2d(
                    (_layer): Conv2d(5, 64, kernel_size=(3, 3), stride=(1, 1), padding=(1, 1))
                  )
                  (1): ConcatConv2d(
                    (_layer): Conv2d(65, 64, kernel_size=(3, 3), stride=(1, 1), padding=(1, 1))
                  )
                  (2): ConcatConv2d(
                    (_layer): Conv2d(65, 64, kernel_size=(3, 3), stride=(1, 1), padding=(1, 1))
                  )
                  (3): ConcatConv2d(
                    (_layer): Conv2d(65, 4, kernel_size=(3, 3), stride=(1, 1), padding=(1, 1))
                  )
                )
                (activation_fns): ModuleList(
                  (0): Softplus(beta=1, threshold=20)
                  (1): Softplus(beta=1, threshold=20)
                  (2): Softplus(beta=1, threshold=20)
                )
              )
            )
          )
        )
      )
    )
    (1): StackedCNFLayers(
      (chain): ModuleList(
        (0): CNF(
          (odefunc): RegularizedODEfunc(
            (odefunc): ODEfunc(
              (diffeq): ODEnet(
                (layers): ModuleList(
                  (0): ConcatConv2d(
                    (_layer): Conv2d(3, 64, kernel_size=(3, 3), stride=(1, 1), padding=(1, 1))
                  )
                  (1): ConcatConv2d(
                    (_layer): Conv2d(65, 64, kernel_size=(3, 3), stride=(1, 1), padding=(1, 1))
                  )
                  (2): ConcatConv2d(
                    (_layer): Conv2d(65, 64, kernel_size=(3, 3), stride=(1, 1), padding=(1, 1))
                  )
                  (3): ConcatConv2d(
                    (_layer): Conv2d(65, 2, kernel_size=(3, 3), stride=(1, 1), padding=(1, 1))
                  )
                )
                (activation_fns): ModuleList(
                  (0): Softplus(beta=1, threshold=20)
                  (1): Softplus(beta=1, threshold=20)
                  (2): Softplus(beta=1, threshold=20)
                )
              )
            )
          )
        )
        (1): CNF(
          (odefunc): RegularizedODEfunc(
            (odefunc): ODEfunc(
              (diffeq): ODEnet(
                (layers): ModuleList(
                  (0): ConcatConv2d(
                    (_layer): Conv2d(3, 64, kernel_size=(3, 3), stride=(1, 1), padding=(1, 1))
                  )
                  (1): ConcatConv2d(
                    (_layer): Conv2d(65, 64, kernel_size=(3, 3), stride=(1, 1), padding=(1, 1))
                  )
                  (2): ConcatConv2d(
                    (_layer): Conv2d(65, 64, kernel_size=(3, 3), stride=(1, 1), padding=(1, 1))
                  )
                  (3): ConcatConv2d(
                    (_layer): Conv2d(65, 2, kernel_size=(3, 3), stride=(1, 1), padding=(1, 1))
                  )
                )
                (activation_fns): ModuleList(
                  (0): Softplus(beta=1, threshold=20)
                  (1): Softplus(beta=1, threshold=20)
                  (2): Softplus(beta=1, threshold=20)
                )
              )
            )
          )
        )
        (2): SqueezeLayer()
        (3): CNF(
          (odefunc): RegularizedODEfunc(
            (odefunc): ODEfunc(
              (diffeq): ODEnet(
                (layers): ModuleList(
                  (0): ConcatConv2d(
                    (_layer): Conv2d(9, 64, kernel_size=(3, 3), stride=(1, 1), padding=(1, 1))
                  )
                  (1): ConcatConv2d(
                    (_layer): Conv2d(65, 64, kernel_size=(3, 3), stride=(1, 1), padding=(1, 1))
                  )
                  (2): ConcatConv2d(
                    (_layer): Conv2d(65, 64, kernel_size=(3, 3), stride=(1, 1), padding=(1, 1))
                  )
                  (3): ConcatConv2d(
                    (_layer): Conv2d(65, 8, kernel_size=(3, 3), stride=(1, 1), padding=(1, 1))
                  )
                )
                (activation_fns): ModuleList(
                  (0): Softplus(beta=1, threshold=20)
                  (1): Softplus(beta=1, threshold=20)
                  (2): Softplus(beta=1, threshold=20)
                )
              )
            )
          )
        )
        (4): CNF(
          (odefunc): RegularizedODEfunc(
            (odefunc): ODEfunc(
              (diffeq): ODEnet(
                (layers): ModuleList(
                  (0): ConcatConv2d(
                    (_layer): Conv2d(9, 64, kernel_size=(3, 3), stride=(1, 1), padding=(1, 1))
                  )
                  (1): ConcatConv2d(
                    (_layer): Conv2d(65, 64, kernel_size=(3, 3), stride=(1, 1), padding=(1, 1))
                  )
                  (2): ConcatConv2d(
                    (_layer): Conv2d(65, 64, kernel_size=(3, 3), stride=(1, 1), padding=(1, 1))
                  )
                  (3): ConcatConv2d(
                    (_layer): Conv2d(65, 8, kernel_size=(3, 3), stride=(1, 1), padding=(1, 1))
                  )
                )
                (activation_fns): ModuleList(
                  (0): Softplus(beta=1, threshold=20)
                  (1): Softplus(beta=1, threshold=20)
                  (2): Softplus(beta=1, threshold=20)
                )
              )
            )
          )
        )
      )
    )
    (2): StackedCNFLayers(
      (chain): ModuleList(
        (0): CNF(
          (odefunc): RegularizedODEfunc(
            (odefunc): ODEfunc(
              (diffeq): ODEnet(
                (layers): ModuleList(
                  (0): ConcatConv2d(
                    (_layer): Conv2d(5, 64, kernel_size=(3, 3), stride=(1, 1), padding=(1, 1))
                  )
                  (1): ConcatConv2d(
                    (_layer): Conv2d(65, 64, kernel_size=(3, 3), stride=(1, 1), padding=(1, 1))
                  )
                  (2): ConcatConv2d(
                    (_layer): Conv2d(65, 64, kernel_size=(3, 3), stride=(1, 1), padding=(1, 1))
                  )
                  (3): ConcatConv2d(
                    (_layer): Conv2d(65, 4, kernel_size=(3, 3), stride=(1, 1), padding=(1, 1))
                  )
                )
                (activation_fns): ModuleList(
                  (0): Softplus(beta=1, threshold=20)
                  (1): Softplus(beta=1, threshold=20)
                  (2): Softplus(beta=1, threshold=20)
                )
              )
            )
          )
        )
        (1): CNF(
          (odefunc): RegularizedODEfunc(
            (odefunc): ODEfunc(
              (diffeq): ODEnet(
                (layers): ModuleList(
                  (0): ConcatConv2d(
                    (_layer): Conv2d(5, 64, kernel_size=(3, 3), stride=(1, 1), padding=(1, 1))
                  )
                  (1): ConcatConv2d(
                    (_layer): Conv2d(65, 64, kernel_size=(3, 3), stride=(1, 1), padding=(1, 1))
                  )
                  (2): ConcatConv2d(
                    (_layer): Conv2d(65, 64, kernel_size=(3, 3), stride=(1, 1), padding=(1, 1))
                  )
                  (3): ConcatConv2d(
                    (_layer): Conv2d(65, 4, kernel_size=(3, 3), stride=(1, 1), padding=(1, 1))
                  )
                )
                (activation_fns): ModuleList(
                  (0): Softplus(beta=1, threshold=20)
                  (1): Softplus(beta=1, threshold=20)
                  (2): Softplus(beta=1, threshold=20)
                )
              )
            )
          )
        )
      )
    )
  )
)
Number of trainable parameters: 800646
…
