Loading miniconda version 22.11.1-1
DenoisingModel(
  (fc1): Linear(in_features=3, out_features=32, bias=True)
  (activation1): cosineact()
  (fc2): Linear(in_features=32, out_features=32, bias=True)
  (activation2): GELU(approximate='none')
  (fc3): Linear(in_features=32, out_features=3, bias=True)
  (activation3): GELU(approximate='none')
  (fc4): Linear(in_features=3, out_features=32, bias=True)
  (activation4): GELU(approximate='none')
  (fc5): Linear(in_features=32, out_features=32, bias=True)
  (activation5): GELU(approximate='none')
  (fc6): Linear(in_features=32, out_features=3, bias=True)
  (activation6): GELU(approximate='none')
  (fc7): Linear(in_features=3, out_features=32, bias=True)
  (activation7): GELU(approximate='none')
  (fc8): Linear(in_features=32, out_features=32, bias=True)
  (activation8): GELU(approximate='none')
  (fc9): Linear(in_features=32, out_features=2, bias=True)
)
tensor(173.7515, grad_fn=<AddBackward0>) 0
tensor(285.9932, grad_fn=<AddBackward0>) 100
tensor(292.1324, grad_fn=<AddBackward0>) 200
tensor(227.1384, grad_fn=<AddBackward0>) 300
tensor(213.3593, grad_fn=<AddBackward0>) 400
tensor(221.7029, grad_fn=<AddBackward0>) 500
tensor(266.1570, grad_fn=<AddBackward0>) 600
tensor(188.3668, grad_fn=<AddBackward0>) 700
tensor(378.1070, grad_fn=<AddBackward0>) 800
tensor(366.7566, grad_fn=<AddBackward0>) 900
DenoisingModel(
  (fc1): Linear(in_features=3, out_features=32, bias=True)
  (activation1): cosineact()
  (fc2): Linear(in_features=32, out_features=32, bias=True)
  (activation2): GELU(approximate='none')
  (fc3): Linear(in_features=32, out_features=3, bias=True)
  (activation3): GELU(approximate='none')
  (fc4): Linear(in_features=3, out_features=32, bias=True)
  (activation4): GELU(approximate='none')
  (fc5): Linear(in_features=32, out_features=32, bias=True)
  (activation5): GELU(approximate='none')
  (fc6): Linear(in_features=32, out_features=3, bias=True)
  (activation6): GELU(approximate='none')
  (fc7): Linear(in_features=3, out_features=32, bias=True)
  (activation7): GELU(approximate='none')
  (fc8): Linear(in_features=32, out_features=32, bias=True)
  (activation8): GELU(approximate='none')
  (fc9): Linear(in_features=32, out_features=2, bias=True)
)
tensor(213.2457, grad_fn=<AddBackward0>) 0
tensor(167.1461, grad_fn=<AddBackward0>) 100
tensor(353.7176, grad_fn=<AddBackward0>) 200
tensor(258.7971, grad_fn=<AddBackward0>) 300
tensor(182.9575, grad_fn=<AddBackward0>) 400
tensor(127.7674, grad_fn=<AddBackward0>) 500
tensor(202.3511, grad_fn=<AddBackward0>) 600
tensor(212.5458, grad_fn=<AddBackward0>) 700
…
