…
                plt.savefig(fig_filename)
                plt.close()
                model.train()

        end = time.time()

    logger.info('Training has finished.')

Namespace(data='moons', depth=10, glow=True, nf=False, niters=100001, batch_size=100, test_batch_size=1000, lr=0.0001, weight_decay=0, l1int=None, l2int=None, dl2int=None, JFrobint=None, JdiagFrobint=None, JoffdiagFrobint=None, save='experiments/cnf/moons_depth10', viz_freq=1000, val_freq=1000, log_freq=100, gpu=0)
SequentialFlow(
  (chain): ModuleList(
    (0): BruteForceLayer()
    (1): CouplingLayer(
      (net_s_t): Sequential(
        (0): Linear(in_features=1, out_features=64, bias=True)
        (1): ReLU(inplace=True)
        (2): Linear(in_features=64, out_features=64, bias=True)
        (3): ReLU(inplace=True)
        (4): Linear(in_features=64, out_features=2, bias=True)
      )
    )
    (2): BruteForceLayer()
    (3): CouplingLayer(
      (net_s_t): Sequential(
        (0): Linear(in_features=1, out_features=64, bias=True)
        (1): ReLU(inplace=True)
        (2): Linear(in_features=64, out_features=64, bias=True)
        (3): ReLU(inplace=True)
        (4): Linear(in_features=64, out_features=2, bias=True)
      )
    )
    (4): BruteForceLayer()
    (5): CouplingLayer(
      (net_s_t): Sequential(
        (0): Linear(in_features=1, out_features=64, bias=True)
        (1): ReLU(inplace=True)
        (2): Linear(in_features=64, out_features=64, bias=True)
        (3): ReLU(inplace=True)
        (4): Linear(in_features=64, out_features=2, bias=True)
      )
    )
    (6): BruteForceLayer()
    (7): CouplingLayer(
      (net_s_t): Sequential(
        (0): Linear(in_features=1, out_features=64, bias=True)
        (1): ReLU(inplace=True)
        (2): Linear(in_features=64, out_features=64, bias=True)
        (3): ReLU(inplace=True)
        (4): Linear(in_features=64, out_features=2, bias=True)
      )
    )
    (8): BruteForceLayer()
    (9): CouplingLayer(
      (net_s_t): Sequential(
        (0): Linear(in_features=1, out_features=64, bias=True)
        (1): ReLU(inplace=True)
        (2): Linear(in_features=64, out_features=64, bias=True)
        (3): ReLU(inplace=True)
        (4): Linear(in_features=64, out_features=2, bias=True)
      )
    )
    (10): BruteForceLayer()
    (11): CouplingLayer(
      (net_s_t): Sequential(
        (0): Linear(in_features=1, out_features=64, bias=True)
        (1): ReLU(inplace=True)
        (2): Linear(in_features=64, out_features=64, bias=True)
        (3): ReLU(inplace=True)
        (4): Linear(in_features=64, out_features=2, bias=True)
      )
    )
    (12): BruteForceLayer()
    (13): CouplingLayer(
      (net_s_t): Sequential(
        (0): Linear(in_features=1, out_features=64, bias=True)
        (1): ReLU(inplace=True)
        (2): Linear(in_features=64, out_features=64, bias=True)
        (3): ReLU(inplace=True)
        (4): Linear(in_features=64, out_features=2, bias=True)
      )
    )
    (14): BruteForceLayer()
    (15): CouplingLayer(
      (net_s_t): Sequential(
        (0): Linear(in_features=1, out_features=64, bias=True)
        (1): ReLU(inplace=True)
        (2): Linear(in_features=64, out_features=64, bias=True)
        (3): ReLU(inplace=True)
        (4): Linear(in_features=64, out_features=2, bias=True)
      )
    )
    (16): BruteForceLayer()
    (17): CouplingLayer(
      (net_s_t): Sequential(
        (0): Linear(in_features=1, out_features=64, bias=True)
        (1): ReLU(inplace=True)
        (2): Linear(in_features=64, out_features=64, bias=True)
        (3): ReLU(inplace=True)
        (4): Linear(in_features=64, out_features=2, bias=True)
      )
    )
    (18): BruteForceLayer()
    (19): CouplingLayer(
      (net_s_t): Sequential(
        (0): Linear(in_features=1, out_features=64, bias=True)
        (1): ReLU(inplace=True)
        (2): Linear(in_features=64, out_features=64, bias=True)
        (3): ReLU(inplace=True)
        (4): Linear(in_features=64, out_features=2, bias=True)
      )
    )
  )
)
Number of trainable parameters: 44220
Iter 0100 | Time 0.0221(0.0229) | Loss 3.415625(3.571677)
Iter 0200 | Time 0.0210(0.0213) | Loss 3.234269(3.326122)
Iter 0300 | Time 0.0216(0.0215) | Loss 3.189804(3.220269)
Iter 0400 | Time 0.0205(0.0210) | Loss 3.154752(3.174779)
Iter 0500 | Time 0.0204(0.0208) | Loss 3.096910(3.138096)
Iter 0600 | Time 0.0210(0.0206) | Loss 3.065554(3.108060)
…
