…
Namespace(data='8gaussians', layer_type='concatsquash', dims='8-8-8', num_blocks=1, time_length=0.5, train_T=True, divergence_fn='brute_force', nonlinearity='tanh', solver='dopri5', atol=1e-05, rtol=1e-05, step_size=None, test_solver=None, test_atol=None, test_rtol=None, residual=False, rademacher=False, spectral_norm=False, batch_norm=False, bn_lag=0, niters=10000, batch_size=100, test_batch_size=1000, lr=0.001, weight_decay=1e-05, l1int=None, l2int=None, dl2int=None, JFrobint=None, JdiagFrobint=None, JoffdiagFrobint=None, save='experiments/ffjord/8gaussians8', viz_freq=1000, val_freq=100, log_freq=10, gpu=0)
SequentialFlow(
  (chain): ModuleList(
    (0): CNF(
      (odefunc): RegularizedODEfunc(
        (odefunc): ODEfunc(
          (diffeq): ODEnet(
            (layers): ModuleList(
              (0): ConcatSquashLinear(
                (_layer): Linear(in_features=2, out_features=8, bias=True)
                (_hyper_bias): Linear(in_features=1, out_features=8, bias=False)
                (_hyper_gate): Linear(in_features=1, out_features=8, bias=True)
              )
              (1): ConcatSquashLinear(
                (_layer): Linear(in_features=8, out_features=8, bias=True)
                (_hyper_bias): Linear(in_features=1, out_features=8, bias=False)
                (_hyper_gate): Linear(in_features=1, out_features=8, bias=True)
              )
              (2): ConcatSquashLinear(
                (_layer): Linear(in_features=8, out_features=8, bias=True)
                (_hyper_bias): Linear(in_features=1, out_features=8, bias=False)
                (_hyper_gate): Linear(in_features=1, out_features=8, bias=True)
              )
              (3): ConcatSquashLinear(
                (_layer): Linear(in_features=8, out_features=2, bias=True)
                (_hyper_bias): Linear(in_features=1, out_features=2, bias=False)
                (_hyper_gate): Linear(in_features=1, out_features=2, bias=True)
              )
            )
            (activation_fns): ModuleList(
              (0): Tanh()
              (1): Tanh()
              (2): Tanh()
            )
          )
        )
      )
    )
  )
)
Number of trainable parameters: 265
Iter 0001 | Time 0.0968(0.0968) | Loss 101.189949(101.189949) | NFE Forward 14(14.0) | NFE Backward 20(20.0) | CNF Time 0.5000(0.5000)
…
